{"format": "graph-model", "generatedBy": "2.17.0", "convertedBy": "TensorFlow.js Converter v4.22.0", "signature": {"outputs": {"Identity:0": {"name": "Identity:0"}}}, "modelTopology": {"node": [{"name": "ConstantFolding/model_27/tf.math.divide_1/truediv_recip", "op": "Const", "attr": {"value": {"tensor": {"dtype": "DT_FLOAT", "tensorShape": {}}}, "dtype": {"type": "DT_FLOAT"}}}, {"name": "model_27/tf.strided_slice_39/ones_like/tensor", "op": "Const", "attr": {"value": {"tensor": {"dtype": "DT_INT64", "tensorShape": {"dim": [{"size": "3"}]}}}, "dtype": {"type": "DT_INT64"}}}, {"name": "model_27/tf.strided_slice_39/StridedSlice/end", "op": "Const", "attr": {"value": {"tensor": {"dtype": "DT_INT64", "tensorShape": {"dim": [{"size": "3"}]}}}, "dtype": {"type": "DT_INT64"}}}, {"name": "model_27/tf.strided_slice_39/ones_like", "op": "Const", "attr": {"value": {"tensor": {"dtype": "DT_INT64", "tensorShape": {"dim": [{"size": "3"}]}}}, "dtype": {"type": "DT_INT64"}}}, {"name": "model_27/tf.math.add_216/Add/y", "op": "Const", "attr": {"value": {"tensor": {"dtype": "DT_FLOAT", "tensorShape": {"dim": [{"size": "1"}, {"size": "2"}, {"size": "8400"}]}}}, "dtype": {"type": "DT_FLOAT"}}}, {"name": "model_27/37820", "op": "Const", "attr": {"value": {"tensor": {"dtype": "DT_FLOAT", "tensorShape": {"dim": [{"size": "1"}, {"size": "2"}, {"size": "8400"}]}}}, "dtype": {"type": "DT_FLOAT"}}}, {"name": "model_27/tf.strided_slice_36/StridedSlice/begin", "op": "Const", "attr": {"value": {"tensor": {"dtype": "DT_INT32", "tensorShape": {"dim": [{"size": "3"}]}}}, "dtype": {"type": "DT_INT32"}}}, {"name": "model_27/tf.strided_slice_36/StridedSlice/end", "op": "Const", "attr": {"value": {"tensor": {"dtype": "DT_INT32", "tensorShape": {"dim": [{"size": "3"}]}}}, "dtype": {"type": "DT_INT32"}}}, {"name": "model_27/tf.strided_slice_36/ones_like", "op": "Const", "attr": {"value": {"tensor": {"dtype": "DT_INT32", "tensorShape": {"dim": [{"size": "3"}]}}}, "dtype": {"type": "DT_INT32"}}}, {"name": "model_27/tf.reshape_26/Reshape/shape", "op": "Const", "attr": {"value": {"tensor": {"dtype": "DT_INT32", "tensorShape": {"dim": [{"size": "4"}]}}}, "dtype": {"type": "DT_INT32"}}}, {"name": "model_27/tf.compat.v1.transpose_225/transpose/perm", "op": "Const", "attr": {"value": {"tensor": {"dtype": "DT_INT32", "tensorShape": {"dim": [{"size": "4"}]}}}, "dtype": {"type": "DT_INT32"}}}, {"name": "model_27/tf.compat.v1.transpose_226/transpose/perm", "op": "Const", "attr": {"value": {"tensor": {"dtype": "DT_INT32", "tensorShape": {"dim": [{"size": "4"}]}}}, "dtype": {"type": "DT_INT32"}}}, {"name": "model_27/tf.nn.convolution_167/convolution/filter", "op": "Const", "attr": {"value": {"tensor": {"dtype": "DT_FLOAT", "tensorShape": {"dim": [{"size": "1"}, {"size": "1"}, {"size": "16"}, {"size": "1"}]}}}, "dtype": {"type": "DT_FLOAT"}}}, {"name": "model_27/tf.compat.v1.transpose_231/transpose/perm", "op": "Const", "attr": {"value": {"tensor": {"dtype": "DT_INT32", "tensorShape": {"dim": [{"size": "4"}]}}}, "dtype": {"type": "DT_INT32"}}}, {"name": "model_27/tf.reshape_29/Reshape/shape", "op": "Const", "attr": {"value": {"tensor": {"dtype": "DT_INT32", "tensorShape": {"dim": [{"size": "3"}]}}}, "dtype": {"type": "DT_INT32"}}}, {"name": "model_27/tf.strided_slice_38/ones_like/tensor", "op": "Const", "attr": {"value": {"tensor": {"dtype": "DT_INT64", "tensorShape": {"dim": [{"size": "3"}]}}}, "dtype": {"type": "DT_INT64"}}}, {"name": "model_27/tf.strided_slice_38/StridedSlice/end", "op": "Const", "attr": {"value": {"tensor": {"dtype": "DT_INT64", "tensorShape": {"dim": [{"size": "3"}]}}}, "dtype": {"type": "DT_INT64"}}}, {"name": "model_27/tf.strided_slice_38/ones_like", "op": "Const", "attr": {"value": {"tensor": {"dtype": "DT_INT64", "tensorShape": {"dim": [{"size": "3"}]}}}, "dtype": {"type": "DT_INT64"}}}, {"name": "model_27/tf.concat_42/concat/axis", "op": "Const", "attr": {"value": {"tensor": {"dtype": "DT_INT32", "tensorShape": {}}}, "dtype": {"type": "DT_INT32"}}}, {"name": "model_27/tf.math.multiply_689/Mul/y", "op": "Const", "attr": {"value": {"tensor": {"dtype": "DT_FLOAT", "tensorShape": {"dim": [{"size": "1"}, {"size": "1"}, {"size": "8400"}]}}}, "dtype": {"type": "DT_FLOAT"}}}, {"name": "model_27/tf.nn.convolution_136/convolution/filter", "op": "Const", "attr": {"value": {"tensor": {"dtype": "DT_FLOAT", "tensorShape": {"dim": [{"size": "3"}, {"size": "3"}, {"size": "192"}, {"size": "64"}]}}}, "dtype": {"type": "DT_FLOAT"}}}, {"name": "model_27/tf.math.add_185/Add/y", "op": "Const", "attr": {"value": {"tensor": {"dtype": "DT_FLOAT", "tensorShape": {"dim": [{"size": "64"}]}}}, "dtype": {"type": "DT_FLOAT"}}}, {"name": "model_27/tf.nn.convolution_138/convolution/filter", "op": "Const", "attr": {"value": {"tensor": {"dtype": "DT_FLOAT", "tensorShape": {"dim": [{"size": "3"}, {"size": "3"}, {"size": "64"}, {"size": "64"}]}}}, "dtype": {"type": "DT_FLOAT"}}}, {"name": "model_27/tf.math.add_187/Add/y", "op": "Const", "attr": {"value": {"tensor": {"dtype": "DT_FLOAT", "tensorShape": {"dim": [{"size": "64"}]}}}, "dtype": {"type": "DT_FLOAT"}}}, {"name": "model_27/tf.nn.convolution_141/convolution/filter", "op": "Const", "attr": {"value": {"tensor": {"dtype": "DT_FLOAT", "tensorShape": {"dim": [{"size": "1"}, {"size": "1"}, {"size": "64"}, {"size": "64"}]}}}, "dtype": {"type": "DT_FLOAT"}}}, {"name": "model_27/tf.math.add_190/Add/y", "op": "Const", "attr": {"value": {"tensor": {"dtype": "DT_FLOAT", "tensorShape": {"dim": [{"size": "64"}]}}}, "dtype": {"type": "DT_FLOAT"}}}, {"name": "model_27/tf.nn.convolution_137/convolution/filter", "op": "Const", "attr": {"value": {"tensor": {"dtype": "DT_FLOAT", "tensorShape": {"dim": [{"size": "3"}, {"size": "3"}, {"size": "192"}, {"size": "192"}]}}}, "dtype": {"type": "DT_FLOAT"}}}, {"name": "model_27/tf.math.add_186/Add/y", "op": "Const", "attr": {"value": {"tensor": {"dtype": "DT_FLOAT", "tensorShape": {"dim": [{"size": "192"}]}}}, "dtype": {"type": "DT_FLOAT"}}}, {"name": "model_27/tf.nn.convolution_139/convolution/filter", "op": "Const", "attr": {"value": {"tensor": {"dtype": "DT_FLOAT", "tensorShape": {"dim": [{"size": "3"}, {"size": "3"}, {"size": "192"}, {"size": "192"}]}}}, "dtype": {"type": "DT_FLOAT"}}}, {"name": "model_27/tf.math.add_188/Add/y", "op": "Const", "attr": {"value": {"tensor": {"dtype": "DT_FLOAT", "tensorShape": {"dim": [{"size": "192"}]}}}, "dtype": {"type": "DT_FLOAT"}}}, {"name": "model_27/tf.nn.convolution_142/convolution/filter", "op": "Const", "attr": {"value": {"tensor": {"dtype": "DT_FLOAT", "tensorShape": {"dim": [{"size": "1"}, {"size": "1"}, {"size": "192"}, {"size": "10"}]}}}, "dtype": {"type": "DT_FLOAT"}}}, {"name": "model_27/tf.math.add_191/Add/y", "op": "Const", "attr": {"value": {"tensor": {"dtype": "DT_FLOAT", "tensorShape": {"dim": [{"size": "10"}]}}}, "dtype": {"type": "DT_FLOAT"}}}, {"name": "model_27/tf.concat_32/concat/axis", "op": "Const", "attr": {"value": {"tensor": {"dtype": "DT_INT32", "tensorShape": {}}}, "dtype": {"type": "DT_INT32"}}}, {"name": "model_27/tf.compat.v1.transpose_188/transpose/perm", "op": "Const", "attr": {"value": {"tensor": {"dtype": "DT_INT32", "tensorShape": {"dim": [{"size": "4"}]}}}, "dtype": {"type": "DT_INT32"}}}, {"name": "model_27/tf.reshape_17/Reshape/shape", "op": "Const", "attr": {"value": {"tensor": {"dtype": "DT_INT32", "tensorShape": {"dim": [{"size": "3"}]}}}, "dtype": {"type": "DT_INT32"}}}, {"name": "model_27/tf.nn.convolution_149/convolution/filter", "op": "Const", "attr": {"value": {"tensor": {"dtype": "DT_FLOAT", "tensorShape": {"dim": [{"size": "3"}, {"size": "3"}, {"size": "384"}, {"size": "64"}]}}}, "dtype": {"type": "DT_FLOAT"}}}, {"name": "model_27/tf.math.add_198/Add/y", "op": "Const", "attr": {"value": {"tensor": {"dtype": "DT_FLOAT", "tensorShape": {"dim": [{"size": "64"}]}}}, "dtype": {"type": "DT_FLOAT"}}}, {"name": "model_27/tf.nn.convolution_151/convolution/filter", "op": "Const", "attr": {"value": {"tensor": {"dtype": "DT_FLOAT", "tensorShape": {"dim": [{"size": "3"}, {"size": "3"}, {"size": "64"}, {"size": "64"}]}}}, "dtype": {"type": "DT_FLOAT"}}}, {"name": "model_27/tf.math.add_200/Add/y", "op": "Const", "attr": {"value": {"tensor": {"dtype": "DT_FLOAT", "tensorShape": {"dim": [{"size": "64"}]}}}, "dtype": {"type": "DT_FLOAT"}}}, {"name": "model_27/tf.nn.convolution_154/convolution/filter", "op": "Const", "attr": {"value": {"tensor": {"dtype": "DT_FLOAT", "tensorShape": {"dim": [{"size": "1"}, {"size": "1"}, {"size": "64"}, {"size": "64"}]}}}, "dtype": {"type": "DT_FLOAT"}}}, {"name": "model_27/tf.math.add_203/Add/y", "op": "Const", "attr": {"value": {"tensor": {"dtype": "DT_FLOAT", "tensorShape": {"dim": [{"size": "64"}]}}}, "dtype": {"type": "DT_FLOAT"}}}, {"name": "model_27/tf.nn.convolution_150/convolution/filter", "op": "Const", "attr": {"value": {"tensor": {"dtype": "DT_FLOAT", "tensorShape": {"dim": [{"size": "3"}, {"size": "3"}, {"size": "384"}, {"size": "192"}]}}}, "dtype": {"type": "DT_FLOAT"}}}, {"name": "model_27/tf.math.add_199/Add/y", "op": "Const", "attr": {"value": {"tensor": {"dtype": "DT_FLOAT", "tensorShape": {"dim": [{"size": "192"}]}}}, "dtype": {"type": "DT_FLOAT"}}}, {"name": "model_27/tf.nn.convolution_152/convolution/filter", "op": "Const", "attr": {"value": {"tensor": {"dtype": "DT_FLOAT", "tensorShape": {"dim": [{"size": "3"}, {"size": "3"}, {"size": "192"}, {"size": "192"}]}}}, "dtype": {"type": "DT_FLOAT"}}}, {"name": "model_27/tf.math.add_201/Add/y", "op": "Const", "attr": {"value": {"tensor": {"dtype": "DT_FLOAT", "tensorShape": {"dim": [{"size": "192"}]}}}, "dtype": {"type": "DT_FLOAT"}}}, {"name": "model_27/tf.nn.convolution_155/convolution/filter", "op": "Const", "attr": {"value": {"tensor": {"dtype": "DT_FLOAT", "tensorShape": {"dim": [{"size": "1"}, {"size": "1"}, {"size": "192"}, {"size": "10"}]}}}, "dtype": {"type": "DT_FLOAT"}}}, {"name": "model_27/tf.math.add_204/Add/y", "op": "Const", "attr": {"value": {"tensor": {"dtype": "DT_FLOAT", "tensorShape": {"dim": [{"size": "10"}]}}}, "dtype": {"type": "DT_FLOAT"}}}, {"name": "model_27/tf.concat_35/concat/axis", "op": "Const", "attr": {"value": {"tensor": {"dtype": "DT_INT32", "tensorShape": {}}}, "dtype": {"type": "DT_INT32"}}}, {"name": "model_27/tf.compat.v1.transpose_204/transpose/perm", "op": "Const", "attr": {"value": {"tensor": {"dtype": "DT_INT32", "tensorShape": {"dim": [{"size": "4"}]}}}, "dtype": {"type": "DT_INT32"}}}, {"name": "model_27/tf.reshape_20/Reshape/shape", "op": "Const", "attr": {"value": {"tensor": {"dtype": "DT_INT32", "tensorShape": {"dim": [{"size": "3"}]}}}, "dtype": {"type": "DT_INT32"}}}, {"name": "model_27/tf.nn.convolution_161/convolution/filter", "op": "Const", "attr": {"value": {"tensor": {"dtype": "DT_FLOAT", "tensorShape": {"dim": [{"size": "3"}, {"size": "3"}, {"size": "576"}, {"size": "64"}]}}}, "dtype": {"type": "DT_FLOAT"}}}, {"name": "model_27/tf.math.add_210/Add/y", "op": "Const", "attr": {"value": {"tensor": {"dtype": "DT_FLOAT", "tensorShape": {"dim": [{"size": "64"}]}}}, "dtype": {"type": "DT_FLOAT"}}}, {"name": "model_27/tf.nn.convolution_163/convolution/filter", "op": "Const", "attr": {"value": {"tensor": {"dtype": "DT_FLOAT", "tensorShape": {"dim": [{"size": "3"}, {"size": "3"}, {"size": "64"}, {"size": "64"}]}}}, "dtype": {"type": "DT_FLOAT"}}}, {"name": "model_27/tf.math.add_212/Add/y", "op": "Const", "attr": {"value": {"tensor": {"dtype": "DT_FLOAT", "tensorShape": {"dim": [{"size": "64"}]}}}, "dtype": {"type": "DT_FLOAT"}}}, {"name": "model_27/tf.nn.convolution_165/convolution/filter", "op": "Const", "attr": {"value": {"tensor": {"dtype": "DT_FLOAT", "tensorShape": {"dim": [{"size": "1"}, {"size": "1"}, {"size": "64"}, {"size": "64"}]}}}, "dtype": {"type": "DT_FLOAT"}}}, {"name": "model_27/tf.math.add_214/Add/y", "op": "Const", "attr": {"value": {"tensor": {"dtype": "DT_FLOAT", "tensorShape": {"dim": [{"size": "64"}]}}}, "dtype": {"type": "DT_FLOAT"}}}, {"name": "model_27/tf.strided_slice_34/ones_like/tensor", "op": "Const", "attr": {"value": {"tensor": {"dtype": "DT_INT64", "tensorShape": {"dim": [{"size": "4"}]}}}, "dtype": {"type": "DT_INT64"}}}, {"name": "model_27/tf.strided_slice_34/StridedSlice/end", "op": "Const", "attr": {"value": {"tensor": {"dtype": "DT_INT64", "tensorShape": {"dim": [{"size": "4"}]}}}, "dtype": {"type": "DT_INT64"}}}, {"name": "model_27/tf.strided_slice_34/ones_like", "op": "Const", "attr": {"value": {"tensor": {"dtype": "DT_INT64", "tensorShape": {"dim": [{"size": "4"}]}}}, "dtype": {"type": "DT_INT64"}}}, {"name": "model_27/tf.strided_slice_32/ones_like/tensor", "op": "Const", "attr": {"value": {"tensor": {"dtype": "DT_INT64", "tensorShape": {"dim": [{"size": "4"}]}}}, "dtype": {"type": "DT_INT64"}}}, {"name": "model_27/tf.strided_slice_32/StridedSlice/end", "op": "Const", "attr": {"value": {"tensor": {"dtype": "DT_INT64", "tensorShape": {"dim": [{"size": "4"}]}}}, "dtype": {"type": "DT_INT64"}}}, {"name": "model_27/tf.strided_slice_32/ones_like", "op": "Const", "attr": {"value": {"tensor": {"dtype": "DT_INT64", "tensorShape": {"dim": [{"size": "4"}]}}}, "dtype": {"type": "DT_INT64"}}}, {"name": "model_27/tf.strided_slice_30/ones_like/tensor", "op": "Const", "attr": {"value": {"tensor": {"dtype": "DT_INT64", "tensorShape": {"dim": [{"size": "4"}]}}}, "dtype": {"type": "DT_INT64"}}}, {"name": "model_27/tf.strided_slice_30/StridedSlice/end", "op": "Const", "attr": {"value": {"tensor": {"dtype": "DT_INT64", "tensorShape": {"dim": [{"size": "4"}]}}}, "dtype": {"type": "DT_INT64"}}}, {"name": "model_27/tf.strided_slice_30/ones_like", "op": "Const", "attr": {"value": {"tensor": {"dtype": "DT_INT64", "tensorShape": {"dim": [{"size": "4"}]}}}, "dtype": {"type": "DT_INT64"}}}, {"name": "model_27/tf.image.resize_3/resize/size", "op": "Const", "attr": {"value": {"tensor": {"dtype": "DT_INT32", "tensorShape": {"dim": [{"size": "2"}]}}}, "dtype": {"type": "DT_INT32"}}}, {"name": "model_27/tf.concat_29/concat/axis", "op": "Const", "attr": {"value": {"tensor": {"dtype": "DT_INT32", "tensorShape": {}}}, "dtype": {"type": "DT_INT32"}}}, {"name": "model_27/tf.nn.convolution_129/convolution/filter", "op": "Const", "attr": {"value": {"tensor": {"dtype": "DT_FLOAT", "tensorShape": {"dim": [{"size": "1"}, {"size": "1"}, {"size": "576"}, {"size": "192"}]}}}, "dtype": {"type": "DT_FLOAT"}}}, {"name": "model_27/tf.math.add_178/Add/y", "op": "Const", "attr": {"value": {"tensor": {"dtype": "DT_FLOAT", "tensorShape": {"dim": [{"size": "192"}]}}}, "dtype": {"type": "DT_FLOAT"}}}, {"name": "model_27/tf.strided_slice_31/ones_like/tensor", "op": "Const", "attr": {"value": {"tensor": {"dtype": "DT_INT64", "tensorShape": {"dim": [{"size": "4"}]}}}, "dtype": {"type": "DT_INT64"}}}, {"name": "model_27/tf.strided_slice_31/StridedSlice/end", "op": "Const", "attr": {"value": {"tensor": {"dtype": "DT_INT64", "tensorShape": {"dim": [{"size": "4"}]}}}, "dtype": {"type": "DT_INT64"}}}, {"name": "model_27/tf.strided_slice_31/ones_like", "op": "Const", "attr": {"value": {"tensor": {"dtype": "DT_INT64", "tensorShape": {"dim": [{"size": "4"}]}}}, "dtype": {"type": "DT_INT64"}}}, {"name": "model_27/tf.nn.convolution_130/convolution/filter", "op": "Const", "attr": {"value": {"tensor": {"dtype": "DT_FLOAT", "tensorShape": {"dim": [{"size": "3"}, {"size": "3"}, {"size": "96"}, {"size": "96"}]}}}, "dtype": {"type": "DT_FLOAT"}}}, {"name": "model_27/tf.math.add_179/Add/y", "op": "Const", "attr": {"value": {"tensor": {"dtype": "DT_FLOAT", "tensorShape": {"dim": [{"size": "96"}]}}}, "dtype": {"type": "DT_FLOAT"}}}, {"name": "model_27/tf.nn.convolution_131/convolution/filter", "op": "Const", "attr": {"value": {"tensor": {"dtype": "DT_FLOAT", "tensorShape": {"dim": [{"size": "3"}, {"size": "3"}, {"size": "96"}, {"size": "96"}]}}}, "dtype": {"type": "DT_FLOAT"}}}, {"name": "model_27/tf.math.add_180/Add/y", "op": "Const", "attr": {"value": {"tensor": {"dtype": "DT_FLOAT", "tensorShape": {"dim": [{"size": "96"}]}}}, "dtype": {"type": "DT_FLOAT"}}}, {"name": "model_27/tf.nn.convolution_132/convolution/filter", "op": "Const", "attr": {"value": {"tensor": {"dtype": "DT_FLOAT", "tensorShape": {"dim": [{"size": "3"}, {"size": "3"}, {"size": "96"}, {"size": "96"}]}}}, "dtype": {"type": "DT_FLOAT"}}}, {"name": "model_27/tf.math.add_181/Add/y", "op": "Const", "attr": {"value": {"tensor": {"dtype": "DT_FLOAT", "tensorShape": {"dim": [{"size": "96"}]}}}, "dtype": {"type": "DT_FLOAT"}}}, {"name": "model_27/tf.nn.convolution_133/convolution/filter", "op": "Const", "attr": {"value": {"tensor": {"dtype": "DT_FLOAT", "tensorShape": {"dim": [{"size": "3"}, {"size": "3"}, {"size": "96"}, {"size": "96"}]}}}, "dtype": {"type": "DT_FLOAT"}}}, {"name": "model_27/tf.math.add_182/Add/y", "op": "Const", "attr": {"value": {"tensor": {"dtype": "DT_FLOAT", "tensorShape": {"dim": [{"size": "96"}]}}}, "dtype": {"type": "DT_FLOAT"}}}, {"name": "model_27/tf.concat_30/concat/axis", "op": "Const", "attr": {"value": {"tensor": {"dtype": "DT_INT32", "tensorShape": {}}}, "dtype": {"type": "DT_INT32"}}}, {"name": "model_27/tf.nn.convolution_134/convolution/filter", "op": "Const", "attr": {"value": {"tensor": {"dtype": "DT_FLOAT", "tensorShape": {"dim": [{"size": "1"}, {"size": "1"}, {"size": "384"}, {"size": "192"}]}}}, "dtype": {"type": "DT_FLOAT"}}}, {"name": "model_27/tf.math.add_183/Add/y", "op": "Const", "attr": {"value": {"tensor": {"dtype": "DT_FLOAT", "tensorShape": {"dim": [{"size": "192"}]}}}, "dtype": {"type": "DT_FLOAT"}}}, {"name": "model_27/tf.compat.v1.pad_12/Pad/paddings", "op": "Const", "attr": {"value": {"tensor": {"dtype": "DT_INT32", "tensorShape": {"dim": [{"size": "4"}, {"size": "2"}]}}}, "dtype": {"type": "DT_INT32"}}}, {"name": "model_27/tf.nn.convolution_135/convolution/filter", "op": "Const", "attr": {"value": {"tensor": {"dtype": "DT_FLOAT", "tensorShape": {"dim": [{"size": "3"}, {"size": "3"}, {"size": "192"}, {"size": "192"}]}}}, "dtype": {"type": "DT_FLOAT"}}}, {"name": "model_27/tf.math.add_184/Add/y", "op": "Const", "attr": {"value": {"tensor": {"dtype": "DT_FLOAT", "tensorShape": {"dim": [{"size": "192"}]}}}, "dtype": {"type": "DT_FLOAT"}}}, {"name": "model_27/tf.strided_slice_28/ones_like/tensor", "op": "Const", "attr": {"value": {"tensor": {"dtype": "DT_INT64", "tensorShape": {"dim": [{"size": "4"}]}}}, "dtype": {"type": "DT_INT64"}}}, {"name": "model_27/tf.strided_slice_28/StridedSlice/end", "op": "Const", "attr": {"value": {"tensor": {"dtype": "DT_INT64", "tensorShape": {"dim": [{"size": "4"}]}}}, "dtype": {"type": "DT_INT64"}}}, {"name": "model_27/tf.strided_slice_28/ones_like", "op": "Const", "attr": {"value": {"tensor": {"dtype": "DT_INT64", "tensorShape": {"dim": [{"size": "4"}]}}}, "dtype": {"type": "DT_INT64"}}}, {"name": "model_27/tf.image.resize_2/resize/size", "op": "Const", "attr": {"value": {"tensor": {"dtype": "DT_INT32", "tensorShape": {"dim": [{"size": "2"}]}}}, "dtype": {"type": "DT_INT32"}}}, {"name": "model_27/tf.concat_27/concat/axis", "op": "Const", "attr": {"value": {"tensor": {"dtype": "DT_INT32", "tensorShape": {}}}, "dtype": {"type": "DT_INT32"}}}, {"name": "model_27/tf.nn.convolution_123/convolution/filter", "op": "Const", "attr": {"value": {"tensor": {"dtype": "DT_FLOAT", "tensorShape": {"dim": [{"size": "1"}, {"size": "1"}, {"size": "960"}, {"size": "384"}]}}}, "dtype": {"type": "DT_FLOAT"}}}, {"name": "model_27/tf.math.add_172/Add/y", "op": "Const", "attr": {"value": {"tensor": {"dtype": "DT_FLOAT", "tensorShape": {"dim": [{"size": "384"}]}}}, "dtype": {"type": "DT_FLOAT"}}}, {"name": "model_27/tf.strided_slice_29/ones_like/tensor", "op": "Const", "attr": {"value": {"tensor": {"dtype": "DT_INT64", "tensorShape": {"dim": [{"size": "4"}]}}}, "dtype": {"type": "DT_INT64"}}}, {"name": "model_27/tf.strided_slice_29/StridedSlice/end", "op": "Const", "attr": {"value": {"tensor": {"dtype": "DT_INT64", "tensorShape": {"dim": [{"size": "4"}]}}}, "dtype": {"type": "DT_INT64"}}}, {"name": "model_27/tf.strided_slice_29/ones_like", "op": "Const", "attr": {"value": {"tensor": {"dtype": "DT_INT64", "tensorShape": {"dim": [{"size": "4"}]}}}, "dtype": {"type": "DT_INT64"}}}, {"name": "model_27/tf.nn.convolution_124/convolution/filter", "op": "Const", "attr": {"value": {"tensor": {"dtype": "DT_FLOAT", "tensorShape": {"dim": [{"size": "3"}, {"size": "3"}, {"size": "192"}, {"size": "192"}]}}}, "dtype": {"type": "DT_FLOAT"}}}, {"name": "model_27/tf.math.add_173/Add/y", "op": "Const", "attr": {"value": {"tensor": {"dtype": "DT_FLOAT", "tensorShape": {"dim": [{"size": "192"}]}}}, "dtype": {"type": "DT_FLOAT"}}}, {"name": "model_27/tf.nn.convolution_125/convolution/filter", "op": "Const", "attr": {"value": {"tensor": {"dtype": "DT_FLOAT", "tensorShape": {"dim": [{"size": "3"}, {"size": "3"}, {"size": "192"}, {"size": "192"}]}}}, "dtype": {"type": "DT_FLOAT"}}}, {"name": "model_27/tf.math.add_174/Add/y", "op": "Const", "attr": {"value": {"tensor": {"dtype": "DT_FLOAT", "tensorShape": {"dim": [{"size": "192"}]}}}, "dtype": {"type": "DT_FLOAT"}}}, {"name": "model_27/tf.nn.convolution_126/convolution/filter", "op": "Const", "attr": {"value": {"tensor": {"dtype": "DT_FLOAT", "tensorShape": {"dim": [{"size": "3"}, {"size": "3"}, {"size": "192"}, {"size": "192"}]}}}, "dtype": {"type": "DT_FLOAT"}}}, {"name": "model_27/tf.math.add_175/Add/y", "op": "Const", "attr": {"value": {"tensor": {"dtype": "DT_FLOAT", "tensorShape": {"dim": [{"size": "192"}]}}}, "dtype": {"type": "DT_FLOAT"}}}, {"name": "model_27/tf.nn.convolution_127/convolution/filter", "op": "Const", "attr": {"value": {"tensor": {"dtype": "DT_FLOAT", "tensorShape": {"dim": [{"size": "3"}, {"size": "3"}, {"size": "192"}, {"size": "192"}]}}}, "dtype": {"type": "DT_FLOAT"}}}, {"name": "model_27/tf.math.add_176/Add/y", "op": "Const", "attr": {"value": {"tensor": {"dtype": "DT_FLOAT", "tensorShape": {"dim": [{"size": "192"}]}}}, "dtype": {"type": "DT_FLOAT"}}}, {"name": "model_27/tf.concat_28/concat/axis", "op": "Const", "attr": {"value": {"tensor": {"dtype": "DT_INT32", "tensorShape": {}}}, "dtype": {"type": "DT_INT32"}}}, {"name": "model_27/tf.nn.convolution_128/convolution/filter", "op": "Const", "attr": {"value": {"tensor": {"dtype": "DT_FLOAT", "tensorShape": {"dim": [{"size": "1"}, {"size": "1"}, {"size": "768"}, {"size": "384"}]}}}, "dtype": {"type": "DT_FLOAT"}}}, {"name": "model_27/tf.math.add_177/Add/y", "op": "Const", "attr": {"value": {"tensor": {"dtype": "DT_FLOAT", "tensorShape": {"dim": [{"size": "384"}]}}}, "dtype": {"type": "DT_FLOAT"}}}, {"name": "model_27/tf.concat_31/concat/axis", "op": "Const", "attr": {"value": {"tensor": {"dtype": "DT_INT32", "tensorShape": {}}}, "dtype": {"type": "DT_INT32"}}}, {"name": "model_27/tf.nn.convolution_140/convolution/filter", "op": "Const", "attr": {"value": {"tensor": {"dtype": "DT_FLOAT", "tensorShape": {"dim": [{"size": "1"}, {"size": "1"}, {"size": "576"}, {"size": "384"}]}}}, "dtype": {"type": "DT_FLOAT"}}}, {"name": "model_27/tf.math.add_189/Add/y", "op": "Const", "attr": {"value": {"tensor": {"dtype": "DT_FLOAT", "tensorShape": {"dim": [{"size": "384"}]}}}, "dtype": {"type": "DT_FLOAT"}}}, {"name": "model_27/tf.strided_slice_33/ones_like/tensor", "op": "Const", "attr": {"value": {"tensor": {"dtype": "DT_INT64", "tensorShape": {"dim": [{"size": "4"}]}}}, "dtype": {"type": "DT_INT64"}}}, {"name": "model_27/tf.strided_slice_33/StridedSlice/end", "op": "Const", "attr": {"value": {"tensor": {"dtype": "DT_INT64", "tensorShape": {"dim": [{"size": "4"}]}}}, "dtype": {"type": "DT_INT64"}}}, {"name": "model_27/tf.strided_slice_33/ones_like", "op": "Const", "attr": {"value": {"tensor": {"dtype": "DT_INT64", "tensorShape": {"dim": [{"size": "4"}]}}}, "dtype": {"type": "DT_INT64"}}}, {"name": "model_27/tf.nn.convolution_143/convolution/filter", "op": "Const", "attr": {"value": {"tensor": {"dtype": "DT_FLOAT", "tensorShape": {"dim": [{"size": "3"}, {"size": "3"}, {"size": "192"}, {"size": "192"}]}}}, "dtype": {"type": "DT_FLOAT"}}}, {"name": "model_27/tf.math.add_192/Add/y", "op": "Const", "attr": {"value": {"tensor": {"dtype": "DT_FLOAT", "tensorShape": {"dim": [{"size": "192"}]}}}, "dtype": {"type": "DT_FLOAT"}}}, {"name": "model_27/tf.nn.convolution_144/convolution/filter", "op": "Const", "attr": {"value": {"tensor": {"dtype": "DT_FLOAT", "tensorShape": {"dim": [{"size": "3"}, {"size": "3"}, {"size": "192"}, {"size": "192"}]}}}, "dtype": {"type": "DT_FLOAT"}}}, {"name": "model_27/tf.math.add_193/Add/y", "op": "Const", "attr": {"value": {"tensor": {"dtype": "DT_FLOAT", "tensorShape": {"dim": [{"size": "192"}]}}}, "dtype": {"type": "DT_FLOAT"}}}, {"name": "model_27/tf.nn.convolution_145/convolution/filter", "op": "Const", "attr": {"value": {"tensor": {"dtype": "DT_FLOAT", "tensorShape": {"dim": [{"size": "3"}, {"size": "3"}, {"size": "192"}, {"size": "192"}]}}}, "dtype": {"type": "DT_FLOAT"}}}, {"name": "model_27/tf.math.add_194/Add/y", "op": "Const", "attr": {"value": {"tensor": {"dtype": "DT_FLOAT", "tensorShape": {"dim": [{"size": "192"}]}}}, "dtype": {"type": "DT_FLOAT"}}}, {"name": "model_27/tf.nn.convolution_146/convolution/filter", "op": "Const", "attr": {"value": {"tensor": {"dtype": "DT_FLOAT", "tensorShape": {"dim": [{"size": "3"}, {"size": "3"}, {"size": "192"}, {"size": "192"}]}}}, "dtype": {"type": "DT_FLOAT"}}}, {"name": "model_27/tf.math.add_195/Add/y", "op": "Const", "attr": {"value": {"tensor": {"dtype": "DT_FLOAT", "tensorShape": {"dim": [{"size": "192"}]}}}, "dtype": {"type": "DT_FLOAT"}}}, {"name": "model_27/tf.concat_33/concat/axis", "op": "Const", "attr": {"value": {"tensor": {"dtype": "DT_INT32", "tensorShape": {}}}, "dtype": {"type": "DT_INT32"}}}, {"name": "model_27/tf.nn.convolution_147/convolution/filter", "op": "Const", "attr": {"value": {"tensor": {"dtype": "DT_FLOAT", "tensorShape": {"dim": [{"size": "1"}, {"size": "1"}, {"size": "768"}, {"size": "384"}]}}}, "dtype": {"type": "DT_FLOAT"}}}, {"name": "model_27/tf.math.add_196/Add/y", "op": "Const", "attr": {"value": {"tensor": {"dtype": "DT_FLOAT", "tensorShape": {"dim": [{"size": "384"}]}}}, "dtype": {"type": "DT_FLOAT"}}}, {"name": "model_27/tf.compat.v1.pad_13/Pad/paddings", "op": "Const", "attr": {"value": {"tensor": {"dtype": "DT_INT32", "tensorShape": {"dim": [{"size": "4"}, {"size": "2"}]}}}, "dtype": {"type": "DT_INT32"}}}, {"name": "model_27/tf.nn.convolution_148/convolution/filter", "op": "Const", "attr": {"value": {"tensor": {"dtype": "DT_FLOAT", "tensorShape": {"dim": [{"size": "3"}, {"size": "3"}, {"size": "384"}, {"size": "384"}]}}}, "dtype": {"type": "DT_FLOAT"}}}, {"name": "model_27/tf.math.add_197/Add/y", "op": "Const", "attr": {"value": {"tensor": {"dtype": "DT_FLOAT", "tensorShape": {"dim": [{"size": "384"}]}}}, "dtype": {"type": "DT_FLOAT"}}}, {"name": "model_27/tf.strided_slice_26/ones_like/tensor", "op": "Const", "attr": {"value": {"tensor": {"dtype": "DT_INT64", "tensorShape": {"dim": [{"size": "4"}]}}}, "dtype": {"type": "DT_INT64"}}}, {"name": "model_27/tf.strided_slice_26/StridedSlice/end", "op": "Const", "attr": {"value": {"tensor": {"dtype": "DT_INT64", "tensorShape": {"dim": [{"size": "4"}]}}}, "dtype": {"type": "DT_INT64"}}}, {"name": "model_27/tf.strided_slice_26/ones_like", "op": "Const", "attr": {"value": {"tensor": {"dtype": "DT_INT64", "tensorShape": {"dim": [{"size": "4"}]}}}, "dtype": {"type": "DT_INT64"}}}, {"name": "model_27/tf.strided_slice_24/ones_like/tensor", "op": "Const", "attr": {"value": {"tensor": {"dtype": "DT_INT64", "tensorShape": {"dim": [{"size": "4"}]}}}, "dtype": {"type": "DT_INT64"}}}, {"name": "model_27/tf.strided_slice_24/StridedSlice/end", "op": "Const", "attr": {"value": {"tensor": {"dtype": "DT_INT64", "tensorShape": {"dim": [{"size": "4"}]}}}, "dtype": {"type": "DT_INT64"}}}, {"name": "model_27/tf.strided_slice_24/ones_like", "op": "Const", "attr": {"value": {"tensor": {"dtype": "DT_INT64", "tensorShape": {"dim": [{"size": "4"}]}}}, "dtype": {"type": "DT_INT64"}}}, {"name": "model_27/tf.strided_slice_22/ones_like/tensor", "op": "Const", "attr": {"value": {"tensor": {"dtype": "DT_INT64", "tensorShape": {"dim": [{"size": "4"}]}}}, "dtype": {"type": "DT_INT64"}}}, {"name": "model_27/tf.strided_slice_22/StridedSlice/end", "op": "Const", "attr": {"value": {"tensor": {"dtype": "DT_INT64", "tensorShape": {"dim": [{"size": "4"}]}}}, "dtype": {"type": "DT_INT64"}}}, {"name": "model_27/tf.strided_slice_22/ones_like", "op": "Const", "attr": {"value": {"tensor": {"dtype": "DT_INT64", "tensorShape": {"dim": [{"size": "4"}]}}}, "dtype": {"type": "DT_INT64"}}}, {"name": "model_27/tf.strided_slice_20/ones_like/tensor", "op": "Const", "attr": {"value": {"tensor": {"dtype": "DT_INT64", "tensorShape": {"dim": [{"size": "4"}]}}}, "dtype": {"type": "DT_INT64"}}}, {"name": "model_27/tf.strided_slice_20/StridedSlice/end", "op": "Const", "attr": {"value": {"tensor": {"dtype": "DT_INT64", "tensorShape": {"dim": [{"size": "4"}]}}}, "dtype": {"type": "DT_INT64"}}}, {"name": "model_27/tf.strided_slice_20/ones_like", "op": "Const", "attr": {"value": {"tensor": {"dtype": "DT_INT64", "tensorShape": {"dim": [{"size": "4"}]}}}, "dtype": {"type": "DT_INT64"}}}, {"name": "model_27/tf.compat.v1.pad_7/Pad/paddings", "op": "Const", "attr": {"value": {"tensor": {"dtype": "DT_INT32", "tensorShape": {"dim": [{"size": "4"}, {"size": "2"}]}}}, "dtype": {"type": "DT_INT32"}}}, {"name": "model_27/tf.nn.convolution_84/convolution/filter", "op": "Const", "attr": {"value": {"tensor": {"dtype": "DT_FLOAT", "tensorShape": {"dim": [{"size": "3"}, {"size": "3"}, {"size": "3"}, {"size": "48"}]}}}, "dtype": {"type": "DT_FLOAT"}}}, {"name": "model_27/tf.math.add_109/Add/y", "op": "Const", "attr": {"value": {"tensor": {"dtype": "DT_FLOAT", "tensorShape": {"dim": [{"size": "48"}]}}}, "dtype": {"type": "DT_FLOAT"}}}, {"name": "model_27/tf.compat.v1.pad_8/Pad/paddings", "op": "Const", "attr": {"value": {"tensor": {"dtype": "DT_INT32", "tensorShape": {"dim": [{"size": "4"}, {"size": "2"}]}}}, "dtype": {"type": "DT_INT32"}}}, {"name": "model_27/tf.nn.convolution_85/convolution/filter", "op": "Const", "attr": {"value": {"tensor": {"dtype": "DT_FLOAT", "tensorShape": {"dim": [{"size": "3"}, {"size": "3"}, {"size": "48"}, {"size": "96"}]}}}, "dtype": {"type": "DT_FLOAT"}}}, {"name": "model_27/tf.math.add_110/Add/y", "op": "Const", "attr": {"value": {"tensor": {"dtype": "DT_FLOAT", "tensorShape": {"dim": [{"size": "96"}]}}}, "dtype": {"type": "DT_FLOAT"}}}, {"name": "model_27/tf.nn.convolution_86/convolution/filter", "op": "Const", "attr": {"value": {"tensor": {"dtype": "DT_FLOAT", "tensorShape": {"dim": [{"size": "1"}, {"size": "1"}, {"size": "96"}, {"size": "96"}]}}}, "dtype": {"type": "DT_FLOAT"}}}, {"name": "model_27/tf.math.add_111/Add/y", "op": "Const", "attr": {"value": {"tensor": {"dtype": "DT_FLOAT", "tensorShape": {"dim": [{"size": "96"}]}}}, "dtype": {"type": "DT_FLOAT"}}}, {"name": "model_27/tf.strided_slice_21/ones_like/tensor", "op": "Const", "attr": {"value": {"tensor": {"dtype": "DT_INT64", "tensorShape": {"dim": [{"size": "4"}]}}}, "dtype": {"type": "DT_INT64"}}}, {"name": "model_27/tf.strided_slice_21/StridedSlice/end", "op": "Const", "attr": {"value": {"tensor": {"dtype": "DT_INT64", "tensorShape": {"dim": [{"size": "4"}]}}}, "dtype": {"type": "DT_INT64"}}}, {"name": "model_27/tf.strided_slice_21/ones_like", "op": "Const", "attr": {"value": {"tensor": {"dtype": "DT_INT64", "tensorShape": {"dim": [{"size": "4"}]}}}, "dtype": {"type": "DT_INT64"}}}, {"name": "model_27/tf.nn.convolution_87/convolution/filter", "op": "Const", "attr": {"value": {"tensor": {"dtype": "DT_FLOAT", "tensorShape": {"dim": [{"size": "3"}, {"size": "3"}, {"size": "48"}, {"size": "48"}]}}}, "dtype": {"type": "DT_FLOAT"}}}, {"name": "model_27/tf.math.add_112/Add/y", "op": "Const", "attr": {"value": {"tensor": {"dtype": "DT_FLOAT", "tensorShape": {"dim": [{"size": "48"}]}}}, "dtype": {"type": "DT_FLOAT"}}}, {"name": "model_27/tf.nn.convolution_88/convolution/filter", "op": "Const", "attr": {"value": {"tensor": {"dtype": "DT_FLOAT", "tensorShape": {"dim": [{"size": "3"}, {"size": "3"}, {"size": "48"}, {"size": "48"}]}}}, "dtype": {"type": "DT_FLOAT"}}}, {"name": "model_27/tf.math.add_113/Add/y", "op": "Const", "attr": {"value": {"tensor": {"dtype": "DT_FLOAT", "tensorShape": {"dim": [{"size": "48"}]}}}, "dtype": {"type": "DT_FLOAT"}}}, {"name": "model_27/tf.nn.convolution_89/convolution/filter", "op": "Const", "attr": {"value": {"tensor": {"dtype": "DT_FLOAT", "tensorShape": {"dim": [{"size": "3"}, {"size": "3"}, {"size": "48"}, {"size": "48"}]}}}, "dtype": {"type": "DT_FLOAT"}}}, {"name": "model_27/tf.math.add_116/Add/y", "op": "Const", "attr": {"value": {"tensor": {"dtype": "DT_FLOAT", "tensorShape": {"dim": [{"size": "48"}]}}}, "dtype": {"type": "DT_FLOAT"}}}, {"name": "model_27/tf.nn.convolution_90/convolution/filter", "op": "Const", "attr": {"value": {"tensor": {"dtype": "DT_FLOAT", "tensorShape": {"dim": [{"size": "3"}, {"size": "3"}, {"size": "48"}, {"size": "48"}]}}}, "dtype": {"type": "DT_FLOAT"}}}, {"name": "model_27/tf.math.add_117/Add/y", "op": "Const", "attr": {"value": {"tensor": {"dtype": "DT_FLOAT", "tensorShape": {"dim": [{"size": "48"}]}}}, "dtype": {"type": "DT_FLOAT"}}}, {"name": "model_27/tf.concat_22/concat/axis", "op": "Const", "attr": {"value": {"tensor": {"dtype": "DT_INT32", "tensorShape": {}}}, "dtype": {"type": "DT_INT32"}}}, {"name": "model_27/tf.nn.convolution_91/convolution/filter", "op": "Const", "attr": {"value": {"tensor": {"dtype": "DT_FLOAT", "tensorShape": {"dim": [{"size": "1"}, {"size": "1"}, {"size": "192"}, {"size": "96"}]}}}, "dtype": {"type": "DT_FLOAT"}}}, {"name": "model_27/tf.math.add_120/Add/y", "op": "Const", "attr": {"value": {"tensor": {"dtype": "DT_FLOAT", "tensorShape": {"dim": [{"size": "96"}]}}}, "dtype": {"type": "DT_FLOAT"}}}, {"name": "model_27/tf.compat.v1.pad_9/Pad/paddings", "op": "Const", "attr": {"value": {"tensor": {"dtype": "DT_INT32", "tensorShape": {"dim": [{"size": "4"}, {"size": "2"}]}}}, "dtype": {"type": "DT_INT32"}}}, {"name": "model_27/tf.nn.convolution_92/convolution/filter", "op": "Const", "attr": {"value": {"tensor": {"dtype": "DT_FLOAT", "tensorShape": {"dim": [{"size": "3"}, {"size": "3"}, {"size": "96"}, {"size": "192"}]}}}, "dtype": {"type": "DT_FLOAT"}}}, {"name": "model_27/tf.math.add_121/Add/y", "op": "Const", "attr": {"value": {"tensor": {"dtype": "DT_FLOAT", "tensorShape": {"dim": [{"size": "192"}]}}}, "dtype": {"type": "DT_FLOAT"}}}, {"name": "model_27/tf.nn.convolution_93/convolution/filter", "op": "Const", "attr": {"value": {"tensor": {"dtype": "DT_FLOAT", "tensorShape": {"dim": [{"size": "1"}, {"size": "1"}, {"size": "192"}, {"size": "192"}]}}}, "dtype": {"type": "DT_FLOAT"}}}, {"name": "model_27/tf.math.add_122/Add/y", "op": "Const", "attr": {"value": {"tensor": {"dtype": "DT_FLOAT", "tensorShape": {"dim": [{"size": "192"}]}}}, "dtype": {"type": "DT_FLOAT"}}}, {"name": "model_27/tf.strided_slice_23/ones_like/tensor", "op": "Const", "attr": {"value": {"tensor": {"dtype": "DT_INT64", "tensorShape": {"dim": [{"size": "4"}]}}}, "dtype": {"type": "DT_INT64"}}}, {"name": "model_27/tf.strided_slice_23/StridedSlice/end", "op": "Const", "attr": {"value": {"tensor": {"dtype": "DT_INT64", "tensorShape": {"dim": [{"size": "4"}]}}}, "dtype": {"type": "DT_INT64"}}}, {"name": "model_27/tf.strided_slice_23/ones_like", "op": "Const", "attr": {"value": {"tensor": {"dtype": "DT_INT64", "tensorShape": {"dim": [{"size": "4"}]}}}, "dtype": {"type": "DT_INT64"}}}, {"name": "model_27/tf.nn.convolution_94/convolution/filter", "op": "Const", "attr": {"value": {"tensor": {"dtype": "DT_FLOAT", "tensorShape": {"dim": [{"size": "3"}, {"size": "3"}, {"size": "96"}, {"size": "96"}]}}}, "dtype": {"type": "DT_FLOAT"}}}, {"name": "model_27/tf.math.add_123/Add/y", "op": "Const", "attr": {"value": {"tensor": {"dtype": "DT_FLOAT", "tensorShape": {"dim": [{"size": "96"}]}}}, "dtype": {"type": "DT_FLOAT"}}}, {"name": "model_27/tf.nn.convolution_95/convolution/filter", "op": "Const", "attr": {"value": {"tensor": {"dtype": "DT_FLOAT", "tensorShape": {"dim": [{"size": "3"}, {"size": "3"}, {"size": "96"}, {"size": "96"}]}}}, "dtype": {"type": "DT_FLOAT"}}}, {"name": "model_27/tf.math.add_124/Add/y", "op": "Const", "attr": {"value": {"tensor": {"dtype": "DT_FLOAT", "tensorShape": {"dim": [{"size": "96"}]}}}, "dtype": {"type": "DT_FLOAT"}}}, {"name": "model_27/tf.nn.convolution_96/convolution/filter", "op": "Const", "attr": {"value": {"tensor": {"dtype": "DT_FLOAT", "tensorShape": {"dim": [{"size": "3"}, {"size": "3"}, {"size": "96"}, {"size": "96"}]}}}, "dtype": {"type": "DT_FLOAT"}}}, {"name": "model_27/tf.math.add_127/Add/y", "op": "Const", "attr": {"value": {"tensor": {"dtype": "DT_FLOAT", "tensorShape": {"dim": [{"size": "96"}]}}}, "dtype": {"type": "DT_FLOAT"}}}, {"name": "model_27/tf.nn.convolution_97/convolution/filter", "op": "Const", "attr": {"value": {"tensor": {"dtype": "DT_FLOAT", "tensorShape": {"dim": [{"size": "3"}, {"size": "3"}, {"size": "96"}, {"size": "96"}]}}}, "dtype": {"type": "DT_FLOAT"}}}, {"name": "model_27/tf.math.add_128/Add/y", "op": "Const", "attr": {"value": {"tensor": {"dtype": "DT_FLOAT", "tensorShape": {"dim": [{"size": "96"}]}}}, "dtype": {"type": "DT_FLOAT"}}}, {"name": "model_27/tf.nn.convolution_98/convolution/filter", "op": "Const", "attr": {"value": {"tensor": {"dtype": "DT_FLOAT", "tensorShape": {"dim": [{"size": "3"}, {"size": "3"}, {"size": "96"}, {"size": "96"}]}}}, "dtype": {"type": "DT_FLOAT"}}}, {"name": "model_27/tf.math.add_131/Add/y", "op": "Const", "attr": {"value": {"tensor": {"dtype": "DT_FLOAT", "tensorShape": {"dim": [{"size": "96"}]}}}, "dtype": {"type": "DT_FLOAT"}}}, {"name": "model_27/tf.nn.convolution_99/convolution/filter", "op": "Const", "attr": {"value": {"tensor": {"dtype": "DT_FLOAT", "tensorShape": {"dim": [{"size": "3"}, {"size": "3"}, {"size": "96"}, {"size": "96"}]}}}, "dtype": {"type": "DT_FLOAT"}}}, {"name": "model_27/tf.math.add_132/Add/y", "op": "Const", "attr": {"value": {"tensor": {"dtype": "DT_FLOAT", "tensorShape": {"dim": [{"size": "96"}]}}}, "dtype": {"type": "DT_FLOAT"}}}, {"name": "model_27/tf.nn.convolution_100/convolution/filter", "op": "Const", "attr": {"value": {"tensor": {"dtype": "DT_FLOAT", "tensorShape": {"dim": [{"size": "3"}, {"size": "3"}, {"size": "96"}, {"size": "96"}]}}}, "dtype": {"type": "DT_FLOAT"}}}, {"name": "model_27/tf.math.add_135/Add/y", "op": "Const", "attr": {"value": {"tensor": {"dtype": "DT_FLOAT", "tensorShape": {"dim": [{"size": "96"}]}}}, "dtype": {"type": "DT_FLOAT"}}}, {"name": "model_27/tf.nn.convolution_101/convolution/filter", "op": "Const", "attr": {"value": {"tensor": {"dtype": "DT_FLOAT", "tensorShape": {"dim": [{"size": "3"}, {"size": "3"}, {"size": "96"}, {"size": "96"}]}}}, "dtype": {"type": "DT_FLOAT"}}}, {"name": "model_27/tf.math.add_136/Add/y", "op": "Const", "attr": {"value": {"tensor": {"dtype": "DT_FLOAT", "tensorShape": {"dim": [{"size": "96"}]}}}, "dtype": {"type": "DT_FLOAT"}}}, {"name": "model_27/tf.concat_23/concat/axis", "op": "Const", "attr": {"value": {"tensor": {"dtype": "DT_INT32", "tensorShape": {}}}, "dtype": {"type": "DT_INT32"}}}, {"name": "model_27/tf.nn.convolution_102/convolution/filter", "op": "Const", "attr": {"value": {"tensor": {"dtype": "DT_FLOAT", "tensorShape": {"dim": [{"size": "1"}, {"size": "1"}, {"size": "576"}, {"size": "192"}]}}}, "dtype": {"type": "DT_FLOAT"}}}, {"name": "model_27/tf.math.add_139/Add/y", "op": "Const", "attr": {"value": {"tensor": {"dtype": "DT_FLOAT", "tensorShape": {"dim": [{"size": "192"}]}}}, "dtype": {"type": "DT_FLOAT"}}}, {"name": "model_27/tf.compat.v1.pad_10/Pad/paddings", "op": "Const", "attr": {"value": {"tensor": {"dtype": "DT_INT32", "tensorShape": {"dim": [{"size": "4"}, {"size": "2"}]}}}, "dtype": {"type": "DT_INT32"}}}, {"name": "model_27/tf.nn.convolution_103/convolution/filter", "op": "Const", "attr": {"value": {"tensor": {"dtype": "DT_FLOAT", "tensorShape": {"dim": [{"size": "3"}, {"size": "3"}, {"size": "192"}, {"size": "384"}]}}}, "dtype": {"type": "DT_FLOAT"}}}, {"name": "model_27/tf.math.add_140/Add/y", "op": "Const", "attr": {"value": {"tensor": {"dtype": "DT_FLOAT", "tensorShape": {"dim": [{"size": "384"}]}}}, "dtype": {"type": "DT_FLOAT"}}}, {"name": "model_27/tf.nn.convolution_104/convolution/filter", "op": "Const", "attr": {"value": {"tensor": {"dtype": "DT_FLOAT", "tensorShape": {"dim": [{"size": "1"}, {"size": "1"}, {"size": "384"}, {"size": "384"}]}}}, "dtype": {"type": "DT_FLOAT"}}}, {"name": "model_27/tf.math.add_141/Add/y", "op": "Const", "attr": {"value": {"tensor": {"dtype": "DT_FLOAT", "tensorShape": {"dim": [{"size": "384"}]}}}, "dtype": {"type": "DT_FLOAT"}}}, {"name": "model_27/tf.strided_slice_25/ones_like/tensor", "op": "Const", "attr": {"value": {"tensor": {"dtype": "DT_INT64", "tensorShape": {"dim": [{"size": "4"}]}}}, "dtype": {"type": "DT_INT64"}}}, {"name": "model_27/tf.strided_slice_25/StridedSlice/end", "op": "Const", "attr": {"value": {"tensor": {"dtype": "DT_INT64", "tensorShape": {"dim": [{"size": "4"}]}}}, "dtype": {"type": "DT_INT64"}}}, {"name": "model_27/tf.strided_slice_25/ones_like", "op": "Const", "attr": {"value": {"tensor": {"dtype": "DT_INT64", "tensorShape": {"dim": [{"size": "4"}]}}}, "dtype": {"type": "DT_INT64"}}}, {"name": "model_27/tf.nn.convolution_105/convolution/filter", "op": "Const", "attr": {"value": {"tensor": {"dtype": "DT_FLOAT", "tensorShape": {"dim": [{"size": "3"}, {"size": "3"}, {"size": "192"}, {"size": "192"}]}}}, "dtype": {"type": "DT_FLOAT"}}}, {"name": "model_27/tf.math.add_142/Add/y", "op": "Const", "attr": {"value": {"tensor": {"dtype": "DT_FLOAT", "tensorShape": {"dim": [{"size": "192"}]}}}, "dtype": {"type": "DT_FLOAT"}}}, {"name": "model_27/tf.nn.convolution_106/convolution/filter", "op": "Const", "attr": {"value": {"tensor": {"dtype": "DT_FLOAT", "tensorShape": {"dim": [{"size": "3"}, {"size": "3"}, {"size": "192"}, {"size": "192"}]}}}, "dtype": {"type": "DT_FLOAT"}}}, {"name": "model_27/tf.math.add_143/Add/y", "op": "Const", "attr": {"value": {"tensor": {"dtype": "DT_FLOAT", "tensorShape": {"dim": [{"size": "192"}]}}}, "dtype": {"type": "DT_FLOAT"}}}, {"name": "model_27/tf.nn.convolution_107/convolution/filter", "op": "Const", "attr": {"value": {"tensor": {"dtype": "DT_FLOAT", "tensorShape": {"dim": [{"size": "3"}, {"size": "3"}, {"size": "192"}, {"size": "192"}]}}}, "dtype": {"type": "DT_FLOAT"}}}, {"name": "model_27/tf.math.add_146/Add/y", "op": "Const", "attr": {"value": {"tensor": {"dtype": "DT_FLOAT", "tensorShape": {"dim": [{"size": "192"}]}}}, "dtype": {"type": "DT_FLOAT"}}}, {"name": "model_27/tf.nn.convolution_108/convolution/filter", "op": "Const", "attr": {"value": {"tensor": {"dtype": "DT_FLOAT", "tensorShape": {"dim": [{"size": "3"}, {"size": "3"}, {"size": "192"}, {"size": "192"}]}}}, "dtype": {"type": "DT_FLOAT"}}}, {"name": "model_27/tf.math.add_147/Add/y", "op": "Const", "attr": {"value": {"tensor": {"dtype": "DT_FLOAT", "tensorShape": {"dim": [{"size": "192"}]}}}, "dtype": {"type": "DT_FLOAT"}}}, {"name": "model_27/tf.nn.convolution_109/convolution/filter", "op": "Const", "attr": {"value": {"tensor": {"dtype": "DT_FLOAT", "tensorShape": {"dim": [{"size": "3"}, {"size": "3"}, {"size": "192"}, {"size": "192"}]}}}, "dtype": {"type": "DT_FLOAT"}}}, {"name": "model_27/tf.math.add_150/Add/y", "op": "Const", "attr": {"value": {"tensor": {"dtype": "DT_FLOAT", "tensorShape": {"dim": [{"size": "192"}]}}}, "dtype": {"type": "DT_FLOAT"}}}, {"name": "model_27/tf.nn.convolution_110/convolution/filter", "op": "Const", "attr": {"value": {"tensor": {"dtype": "DT_FLOAT", "tensorShape": {"dim": [{"size": "3"}, {"size": "3"}, {"size": "192"}, {"size": "192"}]}}}, "dtype": {"type": "DT_FLOAT"}}}, {"name": "model_27/tf.math.add_151/Add/y", "op": "Const", "attr": {"value": {"tensor": {"dtype": "DT_FLOAT", "tensorShape": {"dim": [{"size": "192"}]}}}, "dtype": {"type": "DT_FLOAT"}}}, {"name": "model_27/tf.nn.convolution_111/convolution/filter", "op": "Const", "attr": {"value": {"tensor": {"dtype": "DT_FLOAT", "tensorShape": {"dim": [{"size": "3"}, {"size": "3"}, {"size": "192"}, {"size": "192"}]}}}, "dtype": {"type": "DT_FLOAT"}}}, {"name": "model_27/tf.math.add_154/Add/y", "op": "Const", "attr": {"value": {"tensor": {"dtype": "DT_FLOAT", "tensorShape": {"dim": [{"size": "192"}]}}}, "dtype": {"type": "DT_FLOAT"}}}, {"name": "model_27/tf.nn.convolution_112/convolution/filter", "op": "Const", "attr": {"value": {"tensor": {"dtype": "DT_FLOAT", "tensorShape": {"dim": [{"size": "3"}, {"size": "3"}, {"size": "192"}, {"size": "192"}]}}}, "dtype": {"type": "DT_FLOAT"}}}, {"name": "model_27/tf.math.add_155/Add/y", "op": "Const", "attr": {"value": {"tensor": {"dtype": "DT_FLOAT", "tensorShape": {"dim": [{"size": "192"}]}}}, "dtype": {"type": "DT_FLOAT"}}}, {"name": "model_27/tf.concat_24/concat/axis", "op": "Const", "attr": {"value": {"tensor": {"dtype": "DT_INT32", "tensorShape": {}}}, "dtype": {"type": "DT_INT32"}}}, {"name": "model_27/tf.nn.convolution_113/convolution/filter", "op": "Const", "attr": {"value": {"tensor": {"dtype": "DT_FLOAT", "tensorShape": {"dim": [{"size": "1"}, {"size": "1"}, {"size": "1152"}, {"size": "384"}]}}}, "dtype": {"type": "DT_FLOAT"}}}, {"name": "model_27/tf.math.add_158/Add/y", "op": "Const", "attr": {"value": {"tensor": {"dtype": "DT_FLOAT", "tensorShape": {"dim": [{"size": "384"}]}}}, "dtype": {"type": "DT_FLOAT"}}}, {"name": "model_27/tf.compat.v1.pad_11/Pad/paddings", "op": "Const", "attr": {"value": {"tensor": {"dtype": "DT_INT32", "tensorShape": {"dim": [{"size": "4"}, {"size": "2"}]}}}, "dtype": {"type": "DT_INT32"}}}, {"name": "model_27/tf.nn.convolution_114/convolution/filter", "op": "Const", "attr": {"value": {"tensor": {"dtype": "DT_FLOAT", "tensorShape": {"dim": [{"size": "3"}, {"size": "3"}, {"size": "384"}, {"size": "576"}]}}}, "dtype": {"type": "DT_FLOAT"}}}, {"name": "model_27/tf.math.add_159/Add/y", "op": "Const", "attr": {"value": {"tensor": {"dtype": "DT_FLOAT", "tensorShape": {"dim": [{"size": "576"}]}}}, "dtype": {"type": "DT_FLOAT"}}}, {"name": "model_27/tf.nn.convolution_115/convolution/filter", "op": "Const", "attr": {"value": {"tensor": {"dtype": "DT_FLOAT", "tensorShape": {"dim": [{"size": "1"}, {"size": "1"}, {"size": "576"}, {"size": "576"}]}}}, "dtype": {"type": "DT_FLOAT"}}}, {"name": "model_27/tf.math.add_160/Add/y", "op": "Const", "attr": {"value": {"tensor": {"dtype": "DT_FLOAT", "tensorShape": {"dim": [{"size": "576"}]}}}, "dtype": {"type": "DT_FLOAT"}}}, {"name": "model_27/tf.strided_slice_27/ones_like/tensor", "op": "Const", "attr": {"value": {"tensor": {"dtype": "DT_INT64", "tensorShape": {"dim": [{"size": "4"}]}}}, "dtype": {"type": "DT_INT64"}}}, {"name": "model_27/tf.strided_slice_27/StridedSlice/end", "op": "Const", "attr": {"value": {"tensor": {"dtype": "DT_INT64", "tensorShape": {"dim": [{"size": "4"}]}}}, "dtype": {"type": "DT_INT64"}}}, {"name": "model_27/tf.strided_slice_27/ones_like", "op": "Const", "attr": {"value": {"tensor": {"dtype": "DT_INT64", "tensorShape": {"dim": [{"size": "4"}]}}}, "dtype": {"type": "DT_INT64"}}}, {"name": "model_27/tf.nn.convolution_116/convolution/filter", "op": "Const", "attr": {"value": {"tensor": {"dtype": "DT_FLOAT", "tensorShape": {"dim": [{"size": "3"}, {"size": "3"}, {"size": "288"}, {"size": "288"}]}}}, "dtype": {"type": "DT_FLOAT"}}}, {"name": "model_27/tf.math.add_161/Add/y", "op": "Const", "attr": {"value": {"tensor": {"dtype": "DT_FLOAT", "tensorShape": {"dim": [{"size": "288"}]}}}, "dtype": {"type": "DT_FLOAT"}}}, {"name": "model_27/tf.nn.convolution_117/convolution/filter", "op": "Const", "attr": {"value": {"tensor": {"dtype": "DT_FLOAT", "tensorShape": {"dim": [{"size": "3"}, {"size": "3"}, {"size": "288"}, {"size": "288"}]}}}, "dtype": {"type": "DT_FLOAT"}}}, {"name": "model_27/tf.math.add_162/Add/y", "op": "Const", "attr": {"value": {"tensor": {"dtype": "DT_FLOAT", "tensorShape": {"dim": [{"size": "288"}]}}}, "dtype": {"type": "DT_FLOAT"}}}, {"name": "model_27/tf.nn.convolution_118/convolution/filter", "op": "Const", "attr": {"value": {"tensor": {"dtype": "DT_FLOAT", "tensorShape": {"dim": [{"size": "3"}, {"size": "3"}, {"size": "288"}, {"size": "288"}]}}}, "dtype": {"type": "DT_FLOAT"}}}, {"name": "model_27/tf.math.add_165/Add/y", "op": "Const", "attr": {"value": {"tensor": {"dtype": "DT_FLOAT", "tensorShape": {"dim": [{"size": "288"}]}}}, "dtype": {"type": "DT_FLOAT"}}}, {"name": "model_27/tf.nn.convolution_119/convolution/filter", "op": "Const", "attr": {"value": {"tensor": {"dtype": "DT_FLOAT", "tensorShape": {"dim": [{"size": "3"}, {"size": "3"}, {"size": "288"}, {"size": "288"}]}}}, "dtype": {"type": "DT_FLOAT"}}}, {"name": "model_27/tf.math.add_166/Add/y", "op": "Const", "attr": {"value": {"tensor": {"dtype": "DT_FLOAT", "tensorShape": {"dim": [{"size": "288"}]}}}, "dtype": {"type": "DT_FLOAT"}}}, {"name": "model_27/tf.concat_25/concat/axis", "op": "Const", "attr": {"value": {"tensor": {"dtype": "DT_INT32", "tensorShape": {}}}, "dtype": {"type": "DT_INT32"}}}, {"name": "model_27/tf.nn.convolution_120/convolution/filter", "op": "Const", "attr": {"value": {"tensor": {"dtype": "DT_FLOAT", "tensorShape": {"dim": [{"size": "1"}, {"size": "1"}, {"size": "1152"}, {"size": "576"}]}}}, "dtype": {"type": "DT_FLOAT"}}}, {"name": "model_27/tf.math.add_169/Add/y", "op": "Const", "attr": {"value": {"tensor": {"dtype": "DT_FLOAT", "tensorShape": {"dim": [{"size": "576"}]}}}, "dtype": {"type": "DT_FLOAT"}}}, {"name": "model_27/tf.nn.convolution_121/convolution/filter", "op": "Const", "attr": {"value": {"tensor": {"dtype": "DT_FLOAT", "tensorShape": {"dim": [{"size": "1"}, {"size": "1"}, {"size": "576"}, {"size": "288"}]}}}, "dtype": {"type": "DT_FLOAT"}}}, {"name": "model_27/tf.math.add_170/Add/y", "op": "Const", "attr": {"value": {"tensor": {"dtype": "DT_FLOAT", "tensorShape": {"dim": [{"size": "288"}]}}}, "dtype": {"type": "DT_FLOAT"}}}, {"name": "model_27/tf.concat_26/concat/axis", "op": "Const", "attr": {"value": {"tensor": {"dtype": "DT_INT32", "tensorShape": {}}}, "dtype": {"type": "DT_INT32"}}}, {"name": "model_27/tf.nn.convolution_122/convolution/filter", "op": "Const", "attr": {"value": {"tensor": {"dtype": "DT_FLOAT", "tensorShape": {"dim": [{"size": "1"}, {"size": "1"}, {"size": "1152"}, {"size": "576"}]}}}, "dtype": {"type": "DT_FLOAT"}}}, {"name": "model_27/tf.math.add_171/Add/y", "op": "Const", "attr": {"value": {"tensor": {"dtype": "DT_FLOAT", "tensorShape": {"dim": [{"size": "576"}]}}}, "dtype": {"type": "DT_FLOAT"}}}, {"name": "model_27/tf.concat_34/concat/axis", "op": "Const", "attr": {"value": {"tensor": {"dtype": "DT_INT32", "tensorShape": {}}}, "dtype": {"type": "DT_INT32"}}}, {"name": "model_27/tf.nn.convolution_153/convolution/filter", "op": "Const", "attr": {"value": {"tensor": {"dtype": "DT_FLOAT", "tensorShape": {"dim": [{"size": "1"}, {"size": "1"}, {"size": "960"}, {"size": "576"}]}}}, "dtype": {"type": "DT_FLOAT"}}}, {"name": "model_27/tf.math.add_202/Add/y", "op": "Const", "attr": {"value": {"tensor": {"dtype": "DT_FLOAT", "tensorShape": {"dim": [{"size": "576"}]}}}, "dtype": {"type": "DT_FLOAT"}}}, {"name": "model_27/tf.strided_slice_35/ones_like/tensor", "op": "Const", "attr": {"value": {"tensor": {"dtype": "DT_INT64", "tensorShape": {"dim": [{"size": "4"}]}}}, "dtype": {"type": "DT_INT64"}}}, {"name": "model_27/tf.strided_slice_35/StridedSlice/end", "op": "Const", "attr": {"value": {"tensor": {"dtype": "DT_INT64", "tensorShape": {"dim": [{"size": "4"}]}}}, "dtype": {"type": "DT_INT64"}}}, {"name": "model_27/tf.strided_slice_35/ones_like", "op": "Const", "attr": {"value": {"tensor": {"dtype": "DT_INT64", "tensorShape": {"dim": [{"size": "4"}]}}}, "dtype": {"type": "DT_INT64"}}}, {"name": "model_27/tf.nn.convolution_156/convolution/filter", "op": "Const", "attr": {"value": {"tensor": {"dtype": "DT_FLOAT", "tensorShape": {"dim": [{"size": "3"}, {"size": "3"}, {"size": "288"}, {"size": "288"}]}}}, "dtype": {"type": "DT_FLOAT"}}}, {"name": "model_27/tf.math.add_205/Add/y", "op": "Const", "attr": {"value": {"tensor": {"dtype": "DT_FLOAT", "tensorShape": {"dim": [{"size": "288"}]}}}, "dtype": {"type": "DT_FLOAT"}}}, {"name": "model_27/tf.nn.convolution_157/convolution/filter", "op": "Const", "attr": {"value": {"tensor": {"dtype": "DT_FLOAT", "tensorShape": {"dim": [{"size": "3"}, {"size": "3"}, {"size": "288"}, {"size": "288"}]}}}, "dtype": {"type": "DT_FLOAT"}}}, {"name": "model_27/tf.math.add_206/Add/y", "op": "Const", "attr": {"value": {"tensor": {"dtype": "DT_FLOAT", "tensorShape": {"dim": [{"size": "288"}]}}}, "dtype": {"type": "DT_FLOAT"}}}, {"name": "model_27/tf.nn.convolution_158/convolution/filter", "op": "Const", "attr": {"value": {"tensor": {"dtype": "DT_FLOAT", "tensorShape": {"dim": [{"size": "3"}, {"size": "3"}, {"size": "288"}, {"size": "288"}]}}}, "dtype": {"type": "DT_FLOAT"}}}, {"name": "model_27/tf.math.add_207/Add/y", "op": "Const", "attr": {"value": {"tensor": {"dtype": "DT_FLOAT", "tensorShape": {"dim": [{"size": "288"}]}}}, "dtype": {"type": "DT_FLOAT"}}}, {"name": "model_27/tf.nn.convolution_159/convolution/filter", "op": "Const", "attr": {"value": {"tensor": {"dtype": "DT_FLOAT", "tensorShape": {"dim": [{"size": "3"}, {"size": "3"}, {"size": "288"}, {"size": "288"}]}}}, "dtype": {"type": "DT_FLOAT"}}}, {"name": "model_27/tf.math.add_208/Add/y", "op": "Const", "attr": {"value": {"tensor": {"dtype": "DT_FLOAT", "tensorShape": {"dim": [{"size": "288"}]}}}, "dtype": {"type": "DT_FLOAT"}}}, {"name": "model_27/tf.concat_36/concat/axis", "op": "Const", "attr": {"value": {"tensor": {"dtype": "DT_INT32", "tensorShape": {}}}, "dtype": {"type": "DT_INT32"}}}, {"name": "model_27/tf.nn.convolution_160/convolution/filter", "op": "Const", "attr": {"value": {"tensor": {"dtype": "DT_FLOAT", "tensorShape": {"dim": [{"size": "1"}, {"size": "1"}, {"size": "1152"}, {"size": "576"}]}}}, "dtype": {"type": "DT_FLOAT"}}}, {"name": "model_27/tf.math.add_209/Add/y", "op": "Const", "attr": {"value": {"tensor": {"dtype": "DT_FLOAT", "tensorShape": {"dim": [{"size": "576"}]}}}, "dtype": {"type": "DT_FLOAT"}}}, {"name": "model_27/tf.nn.convolution_162/convolution/filter", "op": "Const", "attr": {"value": {"tensor": {"dtype": "DT_FLOAT", "tensorShape": {"dim": [{"size": "3"}, {"size": "3"}, {"size": "576"}, {"size": "192"}]}}}, "dtype": {"type": "DT_FLOAT"}}}, {"name": "model_27/tf.math.add_211/Add/y", "op": "Const", "attr": {"value": {"tensor": {"dtype": "DT_FLOAT", "tensorShape": {"dim": [{"size": "192"}]}}}, "dtype": {"type": "DT_FLOAT"}}}, {"name": "model_27/tf.nn.convolution_164/convolution/filter", "op": "Const", "attr": {"value": {"tensor": {"dtype": "DT_FLOAT", "tensorShape": {"dim": [{"size": "3"}, {"size": "3"}, {"size": "192"}, {"size": "192"}]}}}, "dtype": {"type": "DT_FLOAT"}}}, {"name": "model_27/tf.math.add_213/Add/y", "op": "Const", "attr": {"value": {"tensor": {"dtype": "DT_FLOAT", "tensorShape": {"dim": [{"size": "192"}]}}}, "dtype": {"type": "DT_FLOAT"}}}, {"name": "model_27/tf.nn.convolution_166/convolution/filter", "op": "Const", "attr": {"value": {"tensor": {"dtype": "DT_FLOAT", "tensorShape": {"dim": [{"size": "1"}, {"size": "1"}, {"size": "192"}, {"size": "10"}]}}}, "dtype": {"type": "DT_FLOAT"}}}, {"name": "model_27/tf.math.add_215/Add/y", "op": "Const", "attr": {"value": {"tensor": {"dtype": "DT_FLOAT", "tensorShape": {"dim": [{"size": "10"}]}}}, "dtype": {"type": "DT_FLOAT"}}}, {"name": "model_27/tf.concat_37/concat/axis", "op": "Const", "attr": {"value": {"tensor": {"dtype": "DT_INT32", "tensorShape": {}}}, "dtype": {"type": "DT_INT32"}}}, {"name": "model_27/tf.compat.v1.transpose_218/transpose/perm", "op": "Const", "attr": {"value": {"tensor": {"dtype": "DT_INT32", "tensorShape": {"dim": [{"size": "4"}]}}}, "dtype": {"type": "DT_INT32"}}}, {"name": "model_27/tf.reshape_23/Reshape/shape", "op": "Const", "attr": {"value": {"tensor": {"dtype": "DT_INT32", "tensorShape": {"dim": [{"size": "3"}]}}}, "dtype": {"type": "DT_INT32"}}}, {"name": "model_27/tf.concat_38/concat/axis", "op": "Const", "attr": {"value": {"tensor": {"dtype": "DT_INT32", "tensorShape": {}}}, "dtype": {"type": "DT_INT32"}}}, {"name": "model_27/tf.strided_slice_37/StridedSlice/begin", "op": "Const", "attr": {"value": {"tensor": {"dtype": "DT_INT32", "tensorShape": {"dim": [{"size": "3"}]}}}, "dtype": {"type": "DT_INT32"}}}, {"name": "model_27/tf.strided_slice_37/StridedSlice/end", "op": "Const", "attr": {"value": {"tensor": {"dtype": "DT_INT32", "tensorShape": {"dim": [{"size": "3"}]}}}, "dtype": {"type": "DT_INT32"}}}, {"name": "model_27/tf.strided_slice_37/ones_like", "op": "Const", "attr": {"value": {"tensor": {"dtype": "DT_INT32", "tensorShape": {"dim": [{"size": "3"}]}}}, "dtype": {"type": "DT_INT32"}}}, {"name": "model_27/output0/concat/axis", "op": "Const", "attr": {"value": {"tensor": {"dtype": "DT_INT32", "tensorShape": {}}}, "dtype": {"type": "DT_INT32"}}}, {"name": "x", "op": "Placeholder", "attr": {"shape": {"shape": {"dim": [{"size": "1"}, {"size": "640"}, {"size": "640"}, {"size": "3"}]}}, "dtype": {"type": "DT_FLOAT"}}}, {"name": "model_27/tf.compat.v1.pad_7/Pad", "op": "Pad", "input": ["x", "model_27/tf.compat.v1.pad_7/Pad/paddings"], "attr": {"Tpaddings": {"type": "DT_INT32"}, "T": {"type": "DT_FLOAT"}}}, {"name": "model_27/tf.math.add_109/Add", "op": "_FusedConv2D", "input": ["model_27/tf.compat.v1.pad_7/Pad", "model_27/tf.nn.convolution_84/convolution/filter", "model_27/tf.math.add_109/Add/y"], "device": "/device:CPU:0", "attr": {"num_host_args": {"i": "0"}, "data_format": {"s": "TkhXQw=="}, "filter_format": {"s": "SFdJTw=="}, "strides": {"list": {"i": ["1", "2", "2", "1"]}}, "num_args": {"i": "1"}, "fused_ops": {"list": {"s": ["Qmlhc0FkZA=="]}}, "TArgs": {"list": {"type": ["DT_FLOAT"]}}, "padding": {"s": "VkFMSUQ="}, "use_cudnn_on_gpu": {"b": true}, "leakyrelu_alpha": {"f": 0.2}, "epsilon": {"f": 0.0}, "T": {"type": "DT_FLOAT"}, "explicit_paddings": {"list": {}}, "dilations": {"list": {"i": ["1", "1", "1", "1"]}}}}, {"name": "model_27/tf.math.sigmoid_78/Sigmoid", "op": "Sigmoid", "input": ["model_27/tf.math.add_109/Add"], "attr": {"T": {"type": "DT_FLOAT"}}}, {"name": "model_27/tf.math.multiply_348/Mul", "op": "Mul", "input": ["model_27/tf.math.add_109/Add", "model_27/tf.math.sigmoid_78/Sigmoid"], "attr": {"T": {"type": "DT_FLOAT"}}}, {"name": "model_27/tf.compat.v1.pad_8/Pad", "op": "Pad", "input": ["model_27/tf.math.multiply_348/Mul", "model_27/tf.compat.v1.pad_8/Pad/paddings"], "attr": {"Tpaddings": {"type": "DT_INT32"}, "T": {"type": "DT_FLOAT"}}}, {"name": "model_27/tf.math.add_110/Add", "op": "_FusedConv2D", "input": ["model_27/tf.compat.v1.pad_8/Pad", "model_27/tf.nn.convolution_85/convolution/filter", "model_27/tf.math.add_110/Add/y"], "device": "/device:CPU:0", "attr": {"num_host_args": {"i": "0"}, "data_format": {"s": "TkhXQw=="}, "filter_format": {"s": "SFdJTw=="}, "fused_ops": {"list": {"s": ["Qmlhc0FkZA=="]}}, "num_args": {"i": "1"}, "strides": {"list": {"i": ["1", "2", "2", "1"]}}, "TArgs": {"list": {"type": ["DT_FLOAT"]}}, "padding": {"s": "VkFMSUQ="}, "use_cudnn_on_gpu": {"b": true}, "leakyrelu_alpha": {"f": 0.2}, "epsilon": {"f": 0.0}, "T": {"type": "DT_FLOAT"}, "explicit_paddings": {"list": {}}, "dilations": {"list": {"i": ["1", "1", "1", "1"]}}}}, {"name": "model_27/tf.math.sigmoid_79/Sigmoid", "op": "Sigmoid", "input": ["model_27/tf.math.add_110/Add"], "attr": {"T": {"type": "DT_FLOAT"}}}, {"name": "model_27/tf.math.multiply_352/Mul", "op": "Mul", "input": ["model_27/tf.math.add_110/Add", "model_27/tf.math.sigmoid_79/Sigmoid"], "attr": {"T": {"type": "DT_FLOAT"}}}, {"name": "model_27/tf.math.add_111/Add", "op": "_FusedConv2D", "input": ["model_27/tf.math.multiply_352/Mul", "model_27/tf.nn.convolution_86/convolution/filter", "model_27/tf.math.add_111/Add/y"], "device": "/device:CPU:0", "attr": {"num_host_args": {"i": "0"}, "data_format": {"s": "TkhXQw=="}, "filter_format": {"s": "SFdJTw=="}, "strides": {"list": {"i": ["1", "1", "1", "1"]}}, "num_args": {"i": "1"}, "fused_ops": {"list": {"s": ["Qmlhc0FkZA=="]}}, "TArgs": {"list": {"type": ["DT_FLOAT"]}}, "padding": {"s": "U0FNRQ=="}, "use_cudnn_on_gpu": {"b": true}, "leakyrelu_alpha": {"f": 0.2}, "epsilon": {"f": 0.0}, "T": {"type": "DT_FLOAT"}, "explicit_paddings": {"list": {}}, "dilations": {"list": {"i": ["1", "1", "1", "1"]}}}}, {"name": "model_27/tf.math.sigmoid_80/Sigmoid", "op": "Sigmoid", "input": ["model_27/tf.math.add_111/Add"], "attr": {"T": {"type": "DT_FLOAT"}}}, {"name": "model_27/tf.math.multiply_356/Mul", "op": "Mul", "input": ["model_27/tf.math.add_111/Add", "model_27/tf.math.sigmoid_80/Sigmoid"], "attr": {"T": {"type": "DT_FLOAT"}}}, {"name": "model_27/tf.strided_slice_20/StridedSlice", "op": "StridedSlice", "input": ["model_27/tf.math.multiply_356/Mul", "model_27/tf.strided_slice_20/ones_like/tensor", "model_27/tf.strided_slice_20/StridedSlice/end", "model_27/tf.strided_slice_20/ones_like"], "attr": {"shrink_axis_mask": {"i": "0"}, "Index": {"type": "DT_INT64"}, "new_axis_mask": {"i": "0"}, "begin_mask": {"i": "15"}, "T": {"type": "DT_FLOAT"}, "end_mask": {"i": "7"}, "ellipsis_mask": {"i": "0"}}}, {"name": "model_27/tf.strided_slice_21/StridedSlice", "op": "StridedSlice", "input": ["model_27/tf.math.multiply_356/Mul", "model_27/tf.strided_slice_21/ones_like/tensor", "model_27/tf.strided_slice_21/StridedSlice/end", "model_27/tf.strided_slice_21/ones_like"], "attr": {"shrink_axis_mask": {"i": "0"}, "new_axis_mask": {"i": "0"}, "Index": {"type": "DT_INT64"}, "begin_mask": {"i": "7"}, "end_mask": {"i": "7"}, "T": {"type": "DT_FLOAT"}, "ellipsis_mask": {"i": "0"}}}, {"name": "model_27/tf.math.add_112/Add", "op": "_FusedConv2D", "input": ["model_27/tf.strided_slice_21/StridedSlice", "model_27/tf.nn.convolution_87/convolution/filter", "model_27/tf.math.add_112/Add/y"], "device": "/device:CPU:0", "attr": {"num_host_args": {"i": "0"}, "data_format": {"s": "TkhXQw=="}, "filter_format": {"s": "SFdJTw=="}, "fused_ops": {"list": {"s": ["Qmlhc0FkZA=="]}}, "num_args": {"i": "1"}, "strides": {"list": {"i": ["1", "1", "1", "1"]}}, "TArgs": {"list": {"type": ["DT_FLOAT"]}}, "padding": {"s": "U0FNRQ=="}, "use_cudnn_on_gpu": {"b": true}, "leakyrelu_alpha": {"f": 0.2}, "epsilon": {"f": 0.0}, "T": {"type": "DT_FLOAT"}, "explicit_paddings": {"list": {}}, "dilations": {"list": {"i": ["1", "1", "1", "1"]}}}}, {"name": "model_27/tf.math.sigmoid_81/Sigmoid", "op": "Sigmoid", "input": ["model_27/tf.math.add_112/Add"], "attr": {"T": {"type": "DT_FLOAT"}}}, {"name": "model_27/tf.math.multiply_360/Mul", "op": "Mul", "input": ["model_27/tf.math.add_112/Add", "model_27/tf.math.sigmoid_81/Sigmoid"], "attr": {"T": {"type": "DT_FLOAT"}}}, {"name": "model_27/tf.math.add_113/Add", "op": "_FusedConv2D", "input": ["model_27/tf.math.multiply_360/Mul", "model_27/tf.nn.convolution_88/convolution/filter", "model_27/tf.math.add_113/Add/y"], "device": "/device:CPU:0", "attr": {"num_host_args": {"i": "0"}, "data_format": {"s": "TkhXQw=="}, "filter_format": {"s": "SFdJTw=="}, "strides": {"list": {"i": ["1", "1", "1", "1"]}}, "num_args": {"i": "1"}, "fused_ops": {"list": {"s": ["Qmlhc0FkZA=="]}}, "TArgs": {"list": {"type": ["DT_FLOAT"]}}, "padding": {"s": "U0FNRQ=="}, "use_cudnn_on_gpu": {"b": true}, "leakyrelu_alpha": {"f": 0.2}, "epsilon": {"f": 0.0}, "T": {"type": "DT_FLOAT"}, "explicit_paddings": {"list": {}}, "dilations": {"list": {"i": ["1", "1", "1", "1"]}}}}, {"name": "model_27/tf.math.sigmoid_82/Sigmoid", "op": "Sigmoid", "input": ["model_27/tf.math.add_113/Add"], "attr": {"T": {"type": "DT_FLOAT"}}}, {"name": "model_27/tf.math.multiply_364/Mul", "op": "Mul", "input": ["model_27/tf.math.add_113/Add", "model_27/tf.math.sigmoid_82/Sigmoid"], "attr": {"T": {"type": "DT_FLOAT"}}}, {"name": "model_27/tf.math.add_115/Add", "op": "AddV2", "input": ["model_27/tf.strided_slice_21/StridedSlice", "model_27/tf.math.multiply_364/Mul"], "attr": {"T": {"type": "DT_FLOAT"}}}, {"name": "model_27/tf.math.add_116/Add", "op": "_FusedConv2D", "input": ["model_27/tf.math.add_115/Add", "model_27/tf.nn.convolution_89/convolution/filter", "model_27/tf.math.add_116/Add/y"], "device": "/device:CPU:0", "attr": {"num_host_args": {"i": "0"}, "data_format": {"s": "TkhXQw=="}, "filter_format": {"s": "SFdJTw=="}, "fused_ops": {"list": {"s": ["Qmlhc0FkZA=="]}}, "num_args": {"i": "1"}, "strides": {"list": {"i": ["1", "1", "1", "1"]}}, "TArgs": {"list": {"type": ["DT_FLOAT"]}}, "padding": {"s": "U0FNRQ=="}, "use_cudnn_on_gpu": {"b": true}, "leakyrelu_alpha": {"f": 0.2}, "epsilon": {"f": 0.0}, "T": {"type": "DT_FLOAT"}, "explicit_paddings": {"list": {}}, "dilations": {"list": {"i": ["1", "1", "1", "1"]}}}}, {"name": "model_27/tf.math.sigmoid_83/Sigmoid", "op": "Sigmoid", "input": ["model_27/tf.math.add_116/Add"], "attr": {"T": {"type": "DT_FLOAT"}}}, {"name": "model_27/tf.math.multiply_370/Mul", "op": "Mul", "input": ["model_27/tf.math.add_116/Add", "model_27/tf.math.sigmoid_83/Sigmoid"], "attr": {"T": {"type": "DT_FLOAT"}}}, {"name": "model_27/tf.math.add_117/Add", "op": "_FusedConv2D", "input": ["model_27/tf.math.multiply_370/Mul", "model_27/tf.nn.convolution_90/convolution/filter", "model_27/tf.math.add_117/Add/y"], "device": "/device:CPU:0", "attr": {"num_host_args": {"i": "0"}, "data_format": {"s": "TkhXQw=="}, "filter_format": {"s": "SFdJTw=="}, "strides": {"list": {"i": ["1", "1", "1", "1"]}}, "num_args": {"i": "1"}, "fused_ops": {"list": {"s": ["Qmlhc0FkZA=="]}}, "TArgs": {"list": {"type": ["DT_FLOAT"]}}, "padding": {"s": "U0FNRQ=="}, "use_cudnn_on_gpu": {"b": true}, "leakyrelu_alpha": {"f": 0.2}, "epsilon": {"f": 0.0}, "T": {"type": "DT_FLOAT"}, "explicit_paddings": {"list": {}}, "dilations": {"list": {"i": ["1", "1", "1", "1"]}}}}, {"name": "model_27/tf.math.sigmoid_84/Sigmoid", "op": "Sigmoid", "input": ["model_27/tf.math.add_117/Add"], "attr": {"T": {"type": "DT_FLOAT"}}}, {"name": "model_27/tf.math.multiply_374/Mul", "op": "Mul", "input": ["model_27/tf.math.add_117/Add", "model_27/tf.math.sigmoid_84/Sigmoid"], "attr": {"T": {"type": "DT_FLOAT"}}}, {"name": "model_27/tf.math.add_119/Add", "op": "AddV2", "input": ["model_27/tf.math.add_115/Add", "model_27/tf.math.multiply_374/Mul"], "attr": {"T": {"type": "DT_FLOAT"}}}, {"name": "model_27/tf.concat_22/concat", "op": "ConcatV2", "input": ["model_27/tf.strided_slice_20/StridedSlice", "model_27/tf.strided_slice_21/StridedSlice", "model_27/tf.math.add_115/Add", "model_27/tf.math.add_119/Add", "model_27/tf.concat_22/concat/axis"], "attr": {"N": {"i": "4"}, "T": {"type": "DT_FLOAT"}, "Tidx": {"type": "DT_INT32"}}}, {"name": "model_27/tf.math.add_120/Add", "op": "_FusedConv2D", "input": ["model_27/tf.concat_22/concat", "model_27/tf.nn.convolution_91/convolution/filter", "model_27/tf.math.add_120/Add/y"], "device": "/device:CPU:0", "attr": {"num_host_args": {"i": "0"}, "data_format": {"s": "TkhXQw=="}, "filter_format": {"s": "SFdJTw=="}, "fused_ops": {"list": {"s": ["Qmlhc0FkZA=="]}}, "num_args": {"i": "1"}, "strides": {"list": {"i": ["1", "1", "1", "1"]}}, "TArgs": {"list": {"type": ["DT_FLOAT"]}}, "padding": {"s": "U0FNRQ=="}, "use_cudnn_on_gpu": {"b": true}, "leakyrelu_alpha": {"f": 0.2}, "epsilon": {"f": 0.0}, "T": {"type": "DT_FLOAT"}, "explicit_paddings": {"list": {}}, "dilations": {"list": {"i": ["1", "1", "1", "1"]}}}}, {"name": "model_27/tf.math.sigmoid_85/Sigmoid", "op": "Sigmoid", "input": ["model_27/tf.math.add_120/Add"], "attr": {"T": {"type": "DT_FLOAT"}}}, {"name": "model_27/tf.math.multiply_380/Mul", "op": "Mul", "input": ["model_27/tf.math.add_120/Add", "model_27/tf.math.sigmoid_85/Sigmoid"], "attr": {"T": {"type": "DT_FLOAT"}}}, {"name": "model_27/tf.compat.v1.pad_9/Pad", "op": "Pad", "input": ["model_27/tf.math.multiply_380/Mul", "model_27/tf.compat.v1.pad_9/Pad/paddings"], "attr": {"Tpaddings": {"type": "DT_INT32"}, "T": {"type": "DT_FLOAT"}}}, {"name": "model_27/tf.math.add_121/Add", "op": "_FusedConv2D", "input": ["model_27/tf.compat.v1.pad_9/Pad", "model_27/tf.nn.convolution_92/convolution/filter", "model_27/tf.math.add_121/Add/y"], "device": "/device:CPU:0", "attr": {"num_host_args": {"i": "0"}, "data_format": {"s": "TkhXQw=="}, "filter_format": {"s": "SFdJTw=="}, "strides": {"list": {"i": ["1", "2", "2", "1"]}}, "num_args": {"i": "1"}, "fused_ops": {"list": {"s": ["Qmlhc0FkZA=="]}}, "TArgs": {"list": {"type": ["DT_FLOAT"]}}, "padding": {"s": "VkFMSUQ="}, "use_cudnn_on_gpu": {"b": true}, "leakyrelu_alpha": {"f": 0.2}, "epsilon": {"f": 0.0}, "T": {"type": "DT_FLOAT"}, "explicit_paddings": {"list": {}}, "dilations": {"list": {"i": ["1", "1", "1", "1"]}}}}, {"name": "model_27/tf.math.sigmoid_86/Sigmoid", "op": "Sigmoid", "input": ["model_27/tf.math.add_121/Add"], "attr": {"T": {"type": "DT_FLOAT"}}}, {"name": "model_27/tf.math.multiply_384/Mul", "op": "Mul", "input": ["model_27/tf.math.add_121/Add", "model_27/tf.math.sigmoid_86/Sigmoid"], "attr": {"T": {"type": "DT_FLOAT"}}}, {"name": "model_27/tf.math.add_122/Add", "op": "_FusedConv2D", "input": ["model_27/tf.math.multiply_384/Mul", "model_27/tf.nn.convolution_93/convolution/filter", "model_27/tf.math.add_122/Add/y"], "device": "/device:CPU:0", "attr": {"num_host_args": {"i": "0"}, "data_format": {"s": "TkhXQw=="}, "filter_format": {"s": "SFdJTw=="}, "strides": {"list": {"i": ["1", "1", "1", "1"]}}, "num_args": {"i": "1"}, "fused_ops": {"list": {"s": ["Qmlhc0FkZA=="]}}, "TArgs": {"list": {"type": ["DT_FLOAT"]}}, "padding": {"s": "U0FNRQ=="}, "use_cudnn_on_gpu": {"b": true}, "leakyrelu_alpha": {"f": 0.2}, "epsilon": {"f": 0.0}, "T": {"type": "DT_FLOAT"}, "explicit_paddings": {"list": {}}, "dilations": {"list": {"i": ["1", "1", "1", "1"]}}}}, {"name": "model_27/tf.math.sigmoid_87/Sigmoid", "op": "Sigmoid", "input": ["model_27/tf.math.add_122/Add"], "attr": {"T": {"type": "DT_FLOAT"}}}, {"name": "model_27/tf.math.multiply_388/Mul", "op": "Mul", "input": ["model_27/tf.math.add_122/Add", "model_27/tf.math.sigmoid_87/Sigmoid"], "attr": {"T": {"type": "DT_FLOAT"}}}, {"name": "model_27/tf.strided_slice_22/StridedSlice", "op": "StridedSlice", "input": ["model_27/tf.math.multiply_388/Mul", "model_27/tf.strided_slice_22/ones_like/tensor", "model_27/tf.strided_slice_22/StridedSlice/end", "model_27/tf.strided_slice_22/ones_like"], "attr": {"shrink_axis_mask": {"i": "0"}, "new_axis_mask": {"i": "0"}, "Index": {"type": "DT_INT64"}, "begin_mask": {"i": "15"}, "end_mask": {"i": "7"}, "T": {"type": "DT_FLOAT"}, "ellipsis_mask": {"i": "0"}}}, {"name": "model_27/tf.strided_slice_23/StridedSlice", "op": "StridedSlice", "input": ["model_27/tf.math.multiply_388/Mul", "model_27/tf.strided_slice_23/ones_like/tensor", "model_27/tf.strided_slice_23/StridedSlice/end", "model_27/tf.strided_slice_23/ones_like"], "attr": {"shrink_axis_mask": {"i": "0"}, "Index": {"type": "DT_INT64"}, "new_axis_mask": {"i": "0"}, "begin_mask": {"i": "7"}, "end_mask": {"i": "7"}, "T": {"type": "DT_FLOAT"}, "ellipsis_mask": {"i": "0"}}}, {"name": "model_27/tf.math.add_123/Add", "op": "_FusedConv2D", "input": ["model_27/tf.strided_slice_23/StridedSlice", "model_27/tf.nn.convolution_94/convolution/filter", "model_27/tf.math.add_123/Add/y"], "device": "/device:CPU:0", "attr": {"num_host_args": {"i": "0"}, "data_format": {"s": "TkhXQw=="}, "filter_format": {"s": "SFdJTw=="}, "strides": {"list": {"i": ["1", "1", "1", "1"]}}, "num_args": {"i": "1"}, "fused_ops": {"list": {"s": ["Qmlhc0FkZA=="]}}, "TArgs": {"list": {"type": ["DT_FLOAT"]}}, "padding": {"s": "U0FNRQ=="}, "use_cudnn_on_gpu": {"b": true}, "leakyrelu_alpha": {"f": 0.2}, "epsilon": {"f": 0.0}, "T": {"type": "DT_FLOAT"}, "explicit_paddings": {"list": {}}, "dilations": {"list": {"i": ["1", "1", "1", "1"]}}}}, {"name": "model_27/tf.math.sigmoid_88/Sigmoid", "op": "Sigmoid", "input": ["model_27/tf.math.add_123/Add"], "attr": {"T": {"type": "DT_FLOAT"}}}, {"name": "model_27/tf.math.multiply_392/Mul", "op": "Mul", "input": ["model_27/tf.math.add_123/Add", "model_27/tf.math.sigmoid_88/Sigmoid"], "attr": {"T": {"type": "DT_FLOAT"}}}, {"name": "model_27/tf.math.add_124/Add", "op": "_FusedConv2D", "input": ["model_27/tf.math.multiply_392/Mul", "model_27/tf.nn.convolution_95/convolution/filter", "model_27/tf.math.add_124/Add/y"], "device": "/device:CPU:0", "attr": {"num_host_args": {"i": "0"}, "data_format": {"s": "TkhXQw=="}, "filter_format": {"s": "SFdJTw=="}, "fused_ops": {"list": {"s": ["Qmlhc0FkZA=="]}}, "num_args": {"i": "1"}, "strides": {"list": {"i": ["1", "1", "1", "1"]}}, "TArgs": {"list": {"type": ["DT_FLOAT"]}}, "padding": {"s": "U0FNRQ=="}, "use_cudnn_on_gpu": {"b": true}, "leakyrelu_alpha": {"f": 0.2}, "epsilon": {"f": 0.0}, "T": {"type": "DT_FLOAT"}, "explicit_paddings": {"list": {}}, "dilations": {"list": {"i": ["1", "1", "1", "1"]}}}}, {"name": "model_27/tf.math.sigmoid_89/Sigmoid", "op": "Sigmoid", "input": ["model_27/tf.math.add_124/Add"], "attr": {"T": {"type": "DT_FLOAT"}}}, {"name": "model_27/tf.math.multiply_396/Mul", "op": "Mul", "input": ["model_27/tf.math.add_124/Add", "model_27/tf.math.sigmoid_89/Sigmoid"], "attr": {"T": {"type": "DT_FLOAT"}}}, {"name": "model_27/tf.math.add_126/Add", "op": "AddV2", "input": ["model_27/tf.strided_slice_23/StridedSlice", "model_27/tf.math.multiply_396/Mul"], "attr": {"T": {"type": "DT_FLOAT"}}}, {"name": "model_27/tf.math.add_127/Add", "op": "_FusedConv2D", "input": ["model_27/tf.math.add_126/Add", "model_27/tf.nn.convolution_96/convolution/filter", "model_27/tf.math.add_127/Add/y"], "device": "/device:CPU:0", "attr": {"num_host_args": {"i": "0"}, "data_format": {"s": "TkhXQw=="}, "filter_format": {"s": "SFdJTw=="}, "fused_ops": {"list": {"s": ["Qmlhc0FkZA=="]}}, "num_args": {"i": "1"}, "strides": {"list": {"i": ["1", "1", "1", "1"]}}, "TArgs": {"list": {"type": ["DT_FLOAT"]}}, "padding": {"s": "U0FNRQ=="}, "use_cudnn_on_gpu": {"b": true}, "leakyrelu_alpha": {"f": 0.2}, "epsilon": {"f": 0.0}, "T": {"type": "DT_FLOAT"}, "explicit_paddings": {"list": {}}, "dilations": {"list": {"i": ["1", "1", "1", "1"]}}}}, {"name": "model_27/tf.math.sigmoid_90/Sigmoid", "op": "Sigmoid", "input": ["model_27/tf.math.add_127/Add"], "attr": {"T": {"type": "DT_FLOAT"}}}, {"name": "model_27/tf.math.multiply_402/Mul", "op": "Mul", "input": ["model_27/tf.math.add_127/Add", "model_27/tf.math.sigmoid_90/Sigmoid"], "attr": {"T": {"type": "DT_FLOAT"}}}, {"name": "model_27/tf.math.add_128/Add", "op": "_FusedConv2D", "input": ["model_27/tf.math.multiply_402/Mul", "model_27/tf.nn.convolution_97/convolution/filter", "model_27/tf.math.add_128/Add/y"], "device": "/device:CPU:0", "attr": {"num_host_args": {"i": "0"}, "data_format": {"s": "TkhXQw=="}, "filter_format": {"s": "SFdJTw=="}, "strides": {"list": {"i": ["1", "1", "1", "1"]}}, "num_args": {"i": "1"}, "fused_ops": {"list": {"s": ["Qmlhc0FkZA=="]}}, "TArgs": {"list": {"type": ["DT_FLOAT"]}}, "padding": {"s": "U0FNRQ=="}, "use_cudnn_on_gpu": {"b": true}, "leakyrelu_alpha": {"f": 0.2}, "epsilon": {"f": 0.0}, "T": {"type": "DT_FLOAT"}, "explicit_paddings": {"list": {}}, "dilations": {"list": {"i": ["1", "1", "1", "1"]}}}}, {"name": "model_27/tf.math.sigmoid_91/Sigmoid", "op": "Sigmoid", "input": ["model_27/tf.math.add_128/Add"], "attr": {"T": {"type": "DT_FLOAT"}}}, {"name": "model_27/tf.math.multiply_406/Mul", "op": "Mul", "input": ["model_27/tf.math.add_128/Add", "model_27/tf.math.sigmoid_91/Sigmoid"], "attr": {"T": {"type": "DT_FLOAT"}}}, {"name": "model_27/tf.math.add_130/Add", "op": "AddV2", "input": ["model_27/tf.math.add_126/Add", "model_27/tf.math.multiply_406/Mul"], "attr": {"T": {"type": "DT_FLOAT"}}}, {"name": "model_27/tf.math.add_131/Add", "op": "_FusedConv2D", "input": ["model_27/tf.math.add_130/Add", "model_27/tf.nn.convolution_98/convolution/filter", "model_27/tf.math.add_131/Add/y"], "device": "/device:CPU:0", "attr": {"num_host_args": {"i": "0"}, "data_format": {"s": "TkhXQw=="}, "filter_format": {"s": "SFdJTw=="}, "fused_ops": {"list": {"s": ["Qmlhc0FkZA=="]}}, "num_args": {"i": "1"}, "strides": {"list": {"i": ["1", "1", "1", "1"]}}, "TArgs": {"list": {"type": ["DT_FLOAT"]}}, "padding": {"s": "U0FNRQ=="}, "use_cudnn_on_gpu": {"b": true}, "leakyrelu_alpha": {"f": 0.2}, "epsilon": {"f": 0.0}, "T": {"type": "DT_FLOAT"}, "explicit_paddings": {"list": {}}, "dilations": {"list": {"i": ["1", "1", "1", "1"]}}}}, {"name": "model_27/tf.math.sigmoid_92/Sigmoid", "op": "Sigmoid", "input": ["model_27/tf.math.add_131/Add"], "attr": {"T": {"type": "DT_FLOAT"}}}, {"name": "model_27/tf.math.multiply_412/Mul", "op": "Mul", "input": ["model_27/tf.math.add_131/Add", "model_27/tf.math.sigmoid_92/Sigmoid"], "attr": {"T": {"type": "DT_FLOAT"}}}, {"name": "model_27/tf.math.add_132/Add", "op": "_FusedConv2D", "input": ["model_27/tf.math.multiply_412/Mul", "model_27/tf.nn.convolution_99/convolution/filter", "model_27/tf.math.add_132/Add/y"], "device": "/device:CPU:0", "attr": {"num_host_args": {"i": "0"}, "data_format": {"s": "TkhXQw=="}, "filter_format": {"s": "SFdJTw=="}, "strides": {"list": {"i": ["1", "1", "1", "1"]}}, "num_args": {"i": "1"}, "fused_ops": {"list": {"s": ["Qmlhc0FkZA=="]}}, "TArgs": {"list": {"type": ["DT_FLOAT"]}}, "padding": {"s": "U0FNRQ=="}, "use_cudnn_on_gpu": {"b": true}, "leakyrelu_alpha": {"f": 0.2}, "epsilon": {"f": 0.0}, "T": {"type": "DT_FLOAT"}, "explicit_paddings": {"list": {}}, "dilations": {"list": {"i": ["1", "1", "1", "1"]}}}}, {"name": "model_27/tf.math.sigmoid_93/Sigmoid", "op": "Sigmoid", "input": ["model_27/tf.math.add_132/Add"], "attr": {"T": {"type": "DT_FLOAT"}}}, {"name": "model_27/tf.math.multiply_416/Mul", "op": "Mul", "input": ["model_27/tf.math.add_132/Add", "model_27/tf.math.sigmoid_93/Sigmoid"], "attr": {"T": {"type": "DT_FLOAT"}}}, {"name": "model_27/tf.math.add_134/Add", "op": "AddV2", "input": ["model_27/tf.math.add_130/Add", "model_27/tf.math.multiply_416/Mul"], "attr": {"T": {"type": "DT_FLOAT"}}}, {"name": "model_27/tf.math.add_135/Add", "op": "_FusedConv2D", "input": ["model_27/tf.math.add_134/Add", "model_27/tf.nn.convolution_100/convolution/filter", "model_27/tf.math.add_135/Add/y"], "device": "/device:CPU:0", "attr": {"num_host_args": {"i": "0"}, "data_format": {"s": "TkhXQw=="}, "filter_format": {"s": "SFdJTw=="}, "fused_ops": {"list": {"s": ["Qmlhc0FkZA=="]}}, "num_args": {"i": "1"}, "strides": {"list": {"i": ["1", "1", "1", "1"]}}, "TArgs": {"list": {"type": ["DT_FLOAT"]}}, "padding": {"s": "U0FNRQ=="}, "use_cudnn_on_gpu": {"b": true}, "leakyrelu_alpha": {"f": 0.2}, "epsilon": {"f": 0.0}, "T": {"type": "DT_FLOAT"}, "explicit_paddings": {"list": {}}, "dilations": {"list": {"i": ["1", "1", "1", "1"]}}}}, {"name": "model_27/tf.math.sigmoid_94/Sigmoid", "op": "Sigmoid", "input": ["model_27/tf.math.add_135/Add"], "attr": {"T": {"type": "DT_FLOAT"}}}, {"name": "model_27/tf.math.multiply_422/Mul", "op": "Mul", "input": ["model_27/tf.math.add_135/Add", "model_27/tf.math.sigmoid_94/Sigmoid"], "attr": {"T": {"type": "DT_FLOAT"}}}, {"name": "model_27/tf.math.add_136/Add", "op": "_FusedConv2D", "input": ["model_27/tf.math.multiply_422/Mul", "model_27/tf.nn.convolution_101/convolution/filter", "model_27/tf.math.add_136/Add/y"], "device": "/device:CPU:0", "attr": {"num_host_args": {"i": "0"}, "data_format": {"s": "TkhXQw=="}, "filter_format": {"s": "SFdJTw=="}, "fused_ops": {"list": {"s": ["Qmlhc0FkZA=="]}}, "num_args": {"i": "1"}, "strides": {"list": {"i": ["1", "1", "1", "1"]}}, "TArgs": {"list": {"type": ["DT_FLOAT"]}}, "padding": {"s": "U0FNRQ=="}, "use_cudnn_on_gpu": {"b": true}, "leakyrelu_alpha": {"f": 0.2}, "epsilon": {"f": 0.0}, "T": {"type": "DT_FLOAT"}, "explicit_paddings": {"list": {}}, "dilations": {"list": {"i": ["1", "1", "1", "1"]}}}}, {"name": "model_27/tf.math.sigmoid_95/Sigmoid", "op": "Sigmoid", "input": ["model_27/tf.math.add_136/Add"], "attr": {"T": {"type": "DT_FLOAT"}}}, {"name": "model_27/tf.math.multiply_426/Mul", "op": "Mul", "input": ["model_27/tf.math.add_136/Add", "model_27/tf.math.sigmoid_95/Sigmoid"], "attr": {"T": {"type": "DT_FLOAT"}}}, {"name": "model_27/tf.math.add_138/Add", "op": "AddV2", "input": ["model_27/tf.math.add_134/Add", "model_27/tf.math.multiply_426/Mul"], "attr": {"T": {"type": "DT_FLOAT"}}}, {"name": "model_27/tf.concat_23/concat", "op": "ConcatV2", "input": ["model_27/tf.strided_slice_22/StridedSlice", "model_27/tf.strided_slice_23/StridedSlice", "model_27/tf.math.add_126/Add", "model_27/tf.math.add_130/Add", "model_27/tf.math.add_134/Add", "model_27/tf.math.add_138/Add", "model_27/tf.concat_23/concat/axis"], "attr": {"N": {"i": "6"}, "T": {"type": "DT_FLOAT"}, "Tidx": {"type": "DT_INT32"}}}, {"name": "model_27/tf.math.add_139/Add", "op": "_FusedConv2D", "input": ["model_27/tf.concat_23/concat", "model_27/tf.nn.convolution_102/convolution/filter", "model_27/tf.math.add_139/Add/y"], "device": "/device:CPU:0", "attr": {"num_host_args": {"i": "0"}, "data_format": {"s": "TkhXQw=="}, "filter_format": {"s": "SFdJTw=="}, "strides": {"list": {"i": ["1", "1", "1", "1"]}}, "num_args": {"i": "1"}, "fused_ops": {"list": {"s": ["Qmlhc0FkZA=="]}}, "TArgs": {"list": {"type": ["DT_FLOAT"]}}, "padding": {"s": "U0FNRQ=="}, "use_cudnn_on_gpu": {"b": true}, "leakyrelu_alpha": {"f": 0.2}, "epsilon": {"f": 0.0}, "T": {"type": "DT_FLOAT"}, "explicit_paddings": {"list": {}}, "dilations": {"list": {"i": ["1", "1", "1", "1"]}}}}, {"name": "model_27/tf.math.sigmoid_96/Sigmoid", "op": "Sigmoid", "input": ["model_27/tf.math.add_139/Add"], "attr": {"T": {"type": "DT_FLOAT"}}}, {"name": "model_27/tf.math.multiply_432/Mul", "op": "Mul", "input": ["model_27/tf.math.add_139/Add", "model_27/tf.math.sigmoid_96/Sigmoid"], "attr": {"T": {"type": "DT_FLOAT"}}}, {"name": "model_27/tf.compat.v1.pad_10/Pad", "op": "Pad", "input": ["model_27/tf.math.multiply_432/Mul", "model_27/tf.compat.v1.pad_10/Pad/paddings"], "attr": {"Tpaddings": {"type": "DT_INT32"}, "T": {"type": "DT_FLOAT"}}}, {"name": "model_27/tf.math.add_140/Add", "op": "_FusedConv2D", "input": ["model_27/tf.compat.v1.pad_10/Pad", "model_27/tf.nn.convolution_103/convolution/filter", "model_27/tf.math.add_140/Add/y"], "device": "/device:CPU:0", "attr": {"num_host_args": {"i": "0"}, "data_format": {"s": "TkhXQw=="}, "filter_format": {"s": "SFdJTw=="}, "strides": {"list": {"i": ["1", "2", "2", "1"]}}, "num_args": {"i": "1"}, "fused_ops": {"list": {"s": ["Qmlhc0FkZA=="]}}, "TArgs": {"list": {"type": ["DT_FLOAT"]}}, "padding": {"s": "VkFMSUQ="}, "use_cudnn_on_gpu": {"b": true}, "leakyrelu_alpha": {"f": 0.2}, "epsilon": {"f": 0.0}, "T": {"type": "DT_FLOAT"}, "explicit_paddings": {"list": {}}, "dilations": {"list": {"i": ["1", "1", "1", "1"]}}}}, {"name": "model_27/tf.math.sigmoid_97/Sigmoid", "op": "Sigmoid", "input": ["model_27/tf.math.add_140/Add"], "attr": {"T": {"type": "DT_FLOAT"}}}, {"name": "model_27/tf.math.multiply_436/Mul", "op": "Mul", "input": ["model_27/tf.math.add_140/Add", "model_27/tf.math.sigmoid_97/Sigmoid"], "attr": {"T": {"type": "DT_FLOAT"}}}, {"name": "model_27/tf.math.add_141/Add", "op": "_FusedConv2D", "input": ["model_27/tf.math.multiply_436/Mul", "model_27/tf.nn.convolution_104/convolution/filter", "model_27/tf.math.add_141/Add/y"], "device": "/device:CPU:0", "attr": {"num_host_args": {"i": "0"}, "data_format": {"s": "TkhXQw=="}, "filter_format": {"s": "SFdJTw=="}, "fused_ops": {"list": {"s": ["Qmlhc0FkZA=="]}}, "num_args": {"i": "1"}, "strides": {"list": {"i": ["1", "1", "1", "1"]}}, "TArgs": {"list": {"type": ["DT_FLOAT"]}}, "padding": {"s": "U0FNRQ=="}, "use_cudnn_on_gpu": {"b": true}, "leakyrelu_alpha": {"f": 0.2}, "epsilon": {"f": 0.0}, "T": {"type": "DT_FLOAT"}, "explicit_paddings": {"list": {}}, "dilations": {"list": {"i": ["1", "1", "1", "1"]}}}}, {"name": "model_27/tf.math.sigmoid_98/Sigmoid", "op": "Sigmoid", "input": ["model_27/tf.math.add_141/Add"], "attr": {"T": {"type": "DT_FLOAT"}}}, {"name": "model_27/tf.math.multiply_440/Mul", "op": "Mul", "input": ["model_27/tf.math.add_141/Add", "model_27/tf.math.sigmoid_98/Sigmoid"], "attr": {"T": {"type": "DT_FLOAT"}}}, {"name": "model_27/tf.strided_slice_24/StridedSlice", "op": "StridedSlice", "input": ["model_27/tf.math.multiply_440/Mul", "model_27/tf.strided_slice_24/ones_like/tensor", "model_27/tf.strided_slice_24/StridedSlice/end", "model_27/tf.strided_slice_24/ones_like"], "attr": {"shrink_axis_mask": {"i": "0"}, "new_axis_mask": {"i": "0"}, "Index": {"type": "DT_INT64"}, "begin_mask": {"i": "15"}, "T": {"type": "DT_FLOAT"}, "end_mask": {"i": "7"}, "ellipsis_mask": {"i": "0"}}}, {"name": "model_27/tf.strided_slice_25/StridedSlice", "op": "StridedSlice", "input": ["model_27/tf.math.multiply_440/Mul", "model_27/tf.strided_slice_25/ones_like/tensor", "model_27/tf.strided_slice_25/StridedSlice/end", "model_27/tf.strided_slice_25/ones_like"], "attr": {"shrink_axis_mask": {"i": "0"}, "Index": {"type": "DT_INT64"}, "new_axis_mask": {"i": "0"}, "begin_mask": {"i": "7"}, "end_mask": {"i": "7"}, "T": {"type": "DT_FLOAT"}, "ellipsis_mask": {"i": "0"}}}, {"name": "model_27/tf.math.add_142/Add", "op": "_FusedConv2D", "input": ["model_27/tf.strided_slice_25/StridedSlice", "model_27/tf.nn.convolution_105/convolution/filter", "model_27/tf.math.add_142/Add/y"], "device": "/device:CPU:0", "attr": {"num_host_args": {"i": "0"}, "data_format": {"s": "TkhXQw=="}, "filter_format": {"s": "SFdJTw=="}, "strides": {"list": {"i": ["1", "1", "1", "1"]}}, "num_args": {"i": "1"}, "fused_ops": {"list": {"s": ["Qmlhc0FkZA=="]}}, "TArgs": {"list": {"type": ["DT_FLOAT"]}}, "padding": {"s": "U0FNRQ=="}, "use_cudnn_on_gpu": {"b": true}, "leakyrelu_alpha": {"f": 0.2}, "epsilon": {"f": 0.0}, "T": {"type": "DT_FLOAT"}, "explicit_paddings": {"list": {}}, "dilations": {"list": {"i": ["1", "1", "1", "1"]}}}}, {"name": "model_27/tf.math.sigmoid_99/Sigmoid", "op": "Sigmoid", "input": ["model_27/tf.math.add_142/Add"], "attr": {"T": {"type": "DT_FLOAT"}}}, {"name": "model_27/tf.math.multiply_444/Mul", "op": "Mul", "input": ["model_27/tf.math.add_142/Add", "model_27/tf.math.sigmoid_99/Sigmoid"], "attr": {"T": {"type": "DT_FLOAT"}}}, {"name": "model_27/tf.math.add_143/Add", "op": "_FusedConv2D", "input": ["model_27/tf.math.multiply_444/Mul", "model_27/tf.nn.convolution_106/convolution/filter", "model_27/tf.math.add_143/Add/y"], "device": "/device:CPU:0", "attr": {"num_host_args": {"i": "0"}, "data_format": {"s": "TkhXQw=="}, "filter_format": {"s": "SFdJTw=="}, "fused_ops": {"list": {"s": ["Qmlhc0FkZA=="]}}, "num_args": {"i": "1"}, "strides": {"list": {"i": ["1", "1", "1", "1"]}}, "TArgs": {"list": {"type": ["DT_FLOAT"]}}, "padding": {"s": "U0FNRQ=="}, "use_cudnn_on_gpu": {"b": true}, "leakyrelu_alpha": {"f": 0.2}, "epsilon": {"f": 0.0}, "T": {"type": "DT_FLOAT"}, "explicit_paddings": {"list": {}}, "dilations": {"list": {"i": ["1", "1", "1", "1"]}}}}, {"name": "model_27/tf.math.sigmoid_100/Sigmoid", "op": "Sigmoid", "input": ["model_27/tf.math.add_143/Add"], "attr": {"T": {"type": "DT_FLOAT"}}}, {"name": "model_27/tf.math.multiply_448/Mul", "op": "Mul", "input": ["model_27/tf.math.add_143/Add", "model_27/tf.math.sigmoid_100/Sigmoid"], "attr": {"T": {"type": "DT_FLOAT"}}}, {"name": "model_27/tf.math.add_145/Add", "op": "AddV2", "input": ["model_27/tf.strided_slice_25/StridedSlice", "model_27/tf.math.multiply_448/Mul"], "attr": {"T": {"type": "DT_FLOAT"}}}, {"name": "model_27/tf.math.add_146/Add", "op": "_FusedConv2D", "input": ["model_27/tf.math.add_145/Add", "model_27/tf.nn.convolution_107/convolution/filter", "model_27/tf.math.add_146/Add/y"], "device": "/device:CPU:0", "attr": {"num_host_args": {"i": "0"}, "data_format": {"s": "TkhXQw=="}, "filter_format": {"s": "SFdJTw=="}, "fused_ops": {"list": {"s": ["Qmlhc0FkZA=="]}}, "num_args": {"i": "1"}, "strides": {"list": {"i": ["1", "1", "1", "1"]}}, "TArgs": {"list": {"type": ["DT_FLOAT"]}}, "padding": {"s": "U0FNRQ=="}, "use_cudnn_on_gpu": {"b": true}, "leakyrelu_alpha": {"f": 0.2}, "epsilon": {"f": 0.0}, "T": {"type": "DT_FLOAT"}, "explicit_paddings": {"list": {}}, "dilations": {"list": {"i": ["1", "1", "1", "1"]}}}}, {"name": "model_27/tf.math.sigmoid_101/Sigmoid", "op": "Sigmoid", "input": ["model_27/tf.math.add_146/Add"], "attr": {"T": {"type": "DT_FLOAT"}}}, {"name": "model_27/tf.math.multiply_454/Mul", "op": "Mul", "input": ["model_27/tf.math.add_146/Add", "model_27/tf.math.sigmoid_101/Sigmoid"], "attr": {"T": {"type": "DT_FLOAT"}}}, {"name": "model_27/tf.math.add_147/Add", "op": "_FusedConv2D", "input": ["model_27/tf.math.multiply_454/Mul", "model_27/tf.nn.convolution_108/convolution/filter", "model_27/tf.math.add_147/Add/y"], "device": "/device:CPU:0", "attr": {"num_host_args": {"i": "0"}, "data_format": {"s": "TkhXQw=="}, "filter_format": {"s": "SFdJTw=="}, "fused_ops": {"list": {"s": ["Qmlhc0FkZA=="]}}, "num_args": {"i": "1"}, "strides": {"list": {"i": ["1", "1", "1", "1"]}}, "TArgs": {"list": {"type": ["DT_FLOAT"]}}, "padding": {"s": "U0FNRQ=="}, "use_cudnn_on_gpu": {"b": true}, "leakyrelu_alpha": {"f": 0.2}, "epsilon": {"f": 0.0}, "T": {"type": "DT_FLOAT"}, "explicit_paddings": {"list": {}}, "dilations": {"list": {"i": ["1", "1", "1", "1"]}}}}, {"name": "model_27/tf.math.sigmoid_102/Sigmoid", "op": "Sigmoid", "input": ["model_27/tf.math.add_147/Add"], "attr": {"T": {"type": "DT_FLOAT"}}}, {"name": "model_27/tf.math.multiply_458/Mul", "op": "Mul", "input": ["model_27/tf.math.add_147/Add", "model_27/tf.math.sigmoid_102/Sigmoid"], "attr": {"T": {"type": "DT_FLOAT"}}}, {"name": "model_27/tf.math.add_149/Add", "op": "AddV2", "input": ["model_27/tf.math.add_145/Add", "model_27/tf.math.multiply_458/Mul"], "attr": {"T": {"type": "DT_FLOAT"}}}, {"name": "model_27/tf.math.add_150/Add", "op": "_FusedConv2D", "input": ["model_27/tf.math.add_149/Add", "model_27/tf.nn.convolution_109/convolution/filter", "model_27/tf.math.add_150/Add/y"], "device": "/device:CPU:0", "attr": {"num_host_args": {"i": "0"}, "data_format": {"s": "TkhXQw=="}, "filter_format": {"s": "SFdJTw=="}, "fused_ops": {"list": {"s": ["Qmlhc0FkZA=="]}}, "num_args": {"i": "1"}, "strides": {"list": {"i": ["1", "1", "1", "1"]}}, "TArgs": {"list": {"type": ["DT_FLOAT"]}}, "padding": {"s": "U0FNRQ=="}, "use_cudnn_on_gpu": {"b": true}, "leakyrelu_alpha": {"f": 0.2}, "epsilon": {"f": 0.0}, "T": {"type": "DT_FLOAT"}, "explicit_paddings": {"list": {}}, "dilations": {"list": {"i": ["1", "1", "1", "1"]}}}}, {"name": "model_27/tf.math.sigmoid_103/Sigmoid", "op": "Sigmoid", "input": ["model_27/tf.math.add_150/Add"], "attr": {"T": {"type": "DT_FLOAT"}}}, {"name": "model_27/tf.math.multiply_464/Mul", "op": "Mul", "input": ["model_27/tf.math.add_150/Add", "model_27/tf.math.sigmoid_103/Sigmoid"], "attr": {"T": {"type": "DT_FLOAT"}}}, {"name": "model_27/tf.math.add_151/Add", "op": "_FusedConv2D", "input": ["model_27/tf.math.multiply_464/Mul", "model_27/tf.nn.convolution_110/convolution/filter", "model_27/tf.math.add_151/Add/y"], "device": "/device:CPU:0", "attr": {"num_host_args": {"i": "0"}, "data_format": {"s": "TkhXQw=="}, "filter_format": {"s": "SFdJTw=="}, "fused_ops": {"list": {"s": ["Qmlhc0FkZA=="]}}, "num_args": {"i": "1"}, "strides": {"list": {"i": ["1", "1", "1", "1"]}}, "TArgs": {"list": {"type": ["DT_FLOAT"]}}, "padding": {"s": "U0FNRQ=="}, "use_cudnn_on_gpu": {"b": true}, "leakyrelu_alpha": {"f": 0.2}, "epsilon": {"f": 0.0}, "T": {"type": "DT_FLOAT"}, "explicit_paddings": {"list": {}}, "dilations": {"list": {"i": ["1", "1", "1", "1"]}}}}, {"name": "model_27/tf.math.sigmoid_104/Sigmoid", "op": "Sigmoid", "input": ["model_27/tf.math.add_151/Add"], "attr": {"T": {"type": "DT_FLOAT"}}}, {"name": "model_27/tf.math.multiply_468/Mul", "op": "Mul", "input": ["model_27/tf.math.add_151/Add", "model_27/tf.math.sigmoid_104/Sigmoid"], "attr": {"T": {"type": "DT_FLOAT"}}}, {"name": "model_27/tf.math.add_153/Add", "op": "AddV2", "input": ["model_27/tf.math.add_149/Add", "model_27/tf.math.multiply_468/Mul"], "attr": {"T": {"type": "DT_FLOAT"}}}, {"name": "model_27/tf.math.add_154/Add", "op": "_FusedConv2D", "input": ["model_27/tf.math.add_153/Add", "model_27/tf.nn.convolution_111/convolution/filter", "model_27/tf.math.add_154/Add/y"], "device": "/device:CPU:0", "attr": {"num_host_args": {"i": "0"}, "data_format": {"s": "TkhXQw=="}, "filter_format": {"s": "SFdJTw=="}, "strides": {"list": {"i": ["1", "1", "1", "1"]}}, "num_args": {"i": "1"}, "fused_ops": {"list": {"s": ["Qmlhc0FkZA=="]}}, "TArgs": {"list": {"type": ["DT_FLOAT"]}}, "padding": {"s": "U0FNRQ=="}, "use_cudnn_on_gpu": {"b": true}, "leakyrelu_alpha": {"f": 0.2}, "epsilon": {"f": 0.0}, "T": {"type": "DT_FLOAT"}, "explicit_paddings": {"list": {}}, "dilations": {"list": {"i": ["1", "1", "1", "1"]}}}}, {"name": "model_27/tf.math.sigmoid_105/Sigmoid", "op": "Sigmoid", "input": ["model_27/tf.math.add_154/Add"], "attr": {"T": {"type": "DT_FLOAT"}}}, {"name": "model_27/tf.math.multiply_474/Mul", "op": "Mul", "input": ["model_27/tf.math.add_154/Add", "model_27/tf.math.sigmoid_105/Sigmoid"], "attr": {"T": {"type": "DT_FLOAT"}}}, {"name": "model_27/tf.math.add_155/Add", "op": "_FusedConv2D", "input": ["model_27/tf.math.multiply_474/Mul", "model_27/tf.nn.convolution_112/convolution/filter", "model_27/tf.math.add_155/Add/y"], "device": "/device:CPU:0", "attr": {"num_host_args": {"i": "0"}, "data_format": {"s": "TkhXQw=="}, "filter_format": {"s": "SFdJTw=="}, "fused_ops": {"list": {"s": ["Qmlhc0FkZA=="]}}, "num_args": {"i": "1"}, "strides": {"list": {"i": ["1", "1", "1", "1"]}}, "TArgs": {"list": {"type": ["DT_FLOAT"]}}, "padding": {"s": "U0FNRQ=="}, "use_cudnn_on_gpu": {"b": true}, "leakyrelu_alpha": {"f": 0.2}, "epsilon": {"f": 0.0}, "T": {"type": "DT_FLOAT"}, "explicit_paddings": {"list": {}}, "dilations": {"list": {"i": ["1", "1", "1", "1"]}}}}, {"name": "model_27/tf.math.sigmoid_106/Sigmoid", "op": "Sigmoid", "input": ["model_27/tf.math.add_155/Add"], "attr": {"T": {"type": "DT_FLOAT"}}}, {"name": "model_27/tf.math.multiply_478/Mul", "op": "Mul", "input": ["model_27/tf.math.add_155/Add", "model_27/tf.math.sigmoid_106/Sigmoid"], "attr": {"T": {"type": "DT_FLOAT"}}}, {"name": "model_27/tf.math.add_157/Add", "op": "AddV2", "input": ["model_27/tf.math.add_153/Add", "model_27/tf.math.multiply_478/Mul"], "attr": {"T": {"type": "DT_FLOAT"}}}, {"name": "model_27/tf.concat_24/concat", "op": "ConcatV2", "input": ["model_27/tf.strided_slice_24/StridedSlice", "model_27/tf.strided_slice_25/StridedSlice", "model_27/tf.math.add_145/Add", "model_27/tf.math.add_149/Add", "model_27/tf.math.add_153/Add", "model_27/tf.math.add_157/Add", "model_27/tf.concat_24/concat/axis"], "attr": {"N": {"i": "6"}, "T": {"type": "DT_FLOAT"}, "Tidx": {"type": "DT_INT32"}}}, {"name": "model_27/tf.math.add_158/Add", "op": "_FusedConv2D", "input": ["model_27/tf.concat_24/concat", "model_27/tf.nn.convolution_113/convolution/filter", "model_27/tf.math.add_158/Add/y"], "device": "/device:CPU:0", "attr": {"num_host_args": {"i": "0"}, "data_format": {"s": "TkhXQw=="}, "filter_format": {"s": "SFdJTw=="}, "strides": {"list": {"i": ["1", "1", "1", "1"]}}, "num_args": {"i": "1"}, "fused_ops": {"list": {"s": ["Qmlhc0FkZA=="]}}, "TArgs": {"list": {"type": ["DT_FLOAT"]}}, "padding": {"s": "U0FNRQ=="}, "use_cudnn_on_gpu": {"b": true}, "leakyrelu_alpha": {"f": 0.2}, "epsilon": {"f": 0.0}, "T": {"type": "DT_FLOAT"}, "explicit_paddings": {"list": {}}, "dilations": {"list": {"i": ["1", "1", "1", "1"]}}}}, {"name": "model_27/tf.math.sigmoid_107/Sigmoid", "op": "Sigmoid", "input": ["model_27/tf.math.add_158/Add"], "attr": {"T": {"type": "DT_FLOAT"}}}, {"name": "model_27/tf.math.multiply_484/Mul", "op": "Mul", "input": ["model_27/tf.math.add_158/Add", "model_27/tf.math.sigmoid_107/Sigmoid"], "attr": {"T": {"type": "DT_FLOAT"}}}, {"name": "model_27/tf.compat.v1.pad_11/Pad", "op": "Pad", "input": ["model_27/tf.math.multiply_484/Mul", "model_27/tf.compat.v1.pad_11/Pad/paddings"], "attr": {"Tpaddings": {"type": "DT_INT32"}, "T": {"type": "DT_FLOAT"}}}, {"name": "model_27/tf.math.add_159/Add", "op": "_FusedConv2D", "input": ["model_27/tf.compat.v1.pad_11/Pad", "model_27/tf.nn.convolution_114/convolution/filter", "model_27/tf.math.add_159/Add/y"], "device": "/device:CPU:0", "attr": {"num_host_args": {"i": "0"}, "data_format": {"s": "TkhXQw=="}, "filter_format": {"s": "SFdJTw=="}, "fused_ops": {"list": {"s": ["Qmlhc0FkZA=="]}}, "num_args": {"i": "1"}, "strides": {"list": {"i": ["1", "2", "2", "1"]}}, "TArgs": {"list": {"type": ["DT_FLOAT"]}}, "padding": {"s": "VkFMSUQ="}, "use_cudnn_on_gpu": {"b": true}, "leakyrelu_alpha": {"f": 0.2}, "epsilon": {"f": 0.0}, "T": {"type": "DT_FLOAT"}, "explicit_paddings": {"list": {}}, "dilations": {"list": {"i": ["1", "1", "1", "1"]}}}}, {"name": "model_27/tf.math.sigmoid_108/Sigmoid", "op": "Sigmoid", "input": ["model_27/tf.math.add_159/Add"], "attr": {"T": {"type": "DT_FLOAT"}}}, {"name": "model_27/tf.math.multiply_488/Mul", "op": "Mul", "input": ["model_27/tf.math.add_159/Add", "model_27/tf.math.sigmoid_108/Sigmoid"], "attr": {"T": {"type": "DT_FLOAT"}}}, {"name": "model_27/tf.math.add_160/Add", "op": "_FusedConv2D", "input": ["model_27/tf.math.multiply_488/Mul", "model_27/tf.nn.convolution_115/convolution/filter", "model_27/tf.math.add_160/Add/y"], "device": "/device:CPU:0", "attr": {"num_host_args": {"i": "0"}, "data_format": {"s": "TkhXQw=="}, "filter_format": {"s": "SFdJTw=="}, "fused_ops": {"list": {"s": ["Qmlhc0FkZA=="]}}, "num_args": {"i": "1"}, "strides": {"list": {"i": ["1", "1", "1", "1"]}}, "TArgs": {"list": {"type": ["DT_FLOAT"]}}, "padding": {"s": "U0FNRQ=="}, "use_cudnn_on_gpu": {"b": true}, "leakyrelu_alpha": {"f": 0.2}, "epsilon": {"f": 0.0}, "T": {"type": "DT_FLOAT"}, "explicit_paddings": {"list": {}}, "dilations": {"list": {"i": ["1", "1", "1", "1"]}}}}, {"name": "model_27/tf.math.sigmoid_109/Sigmoid", "op": "Sigmoid", "input": ["model_27/tf.math.add_160/Add"], "attr": {"T": {"type": "DT_FLOAT"}}}, {"name": "model_27/tf.math.multiply_492/Mul", "op": "Mul", "input": ["model_27/tf.math.add_160/Add", "model_27/tf.math.sigmoid_109/Sigmoid"], "attr": {"T": {"type": "DT_FLOAT"}}}, {"name": "model_27/tf.strided_slice_26/StridedSlice", "op": "StridedSlice", "input": ["model_27/tf.math.multiply_492/Mul", "model_27/tf.strided_slice_26/ones_like/tensor", "model_27/tf.strided_slice_26/StridedSlice/end", "model_27/tf.strided_slice_26/ones_like"], "attr": {"shrink_axis_mask": {"i": "0"}, "Index": {"type": "DT_INT64"}, "new_axis_mask": {"i": "0"}, "begin_mask": {"i": "15"}, "end_mask": {"i": "7"}, "T": {"type": "DT_FLOAT"}, "ellipsis_mask": {"i": "0"}}}, {"name": "model_27/tf.strided_slice_27/StridedSlice", "op": "StridedSlice", "input": ["model_27/tf.math.multiply_492/Mul", "model_27/tf.strided_slice_27/ones_like/tensor", "model_27/tf.strided_slice_27/StridedSlice/end", "model_27/tf.strided_slice_27/ones_like"], "attr": {"shrink_axis_mask": {"i": "0"}, "Index": {"type": "DT_INT64"}, "new_axis_mask": {"i": "0"}, "begin_mask": {"i": "7"}, "T": {"type": "DT_FLOAT"}, "end_mask": {"i": "7"}, "ellipsis_mask": {"i": "0"}}}, {"name": "model_27/tf.math.add_161/Add", "op": "_FusedConv2D", "input": ["model_27/tf.strided_slice_27/StridedSlice", "model_27/tf.nn.convolution_116/convolution/filter", "model_27/tf.math.add_161/Add/y"], "device": "/device:CPU:0", "attr": {"num_host_args": {"i": "0"}, "data_format": {"s": "TkhXQw=="}, "filter_format": {"s": "SFdJTw=="}, "strides": {"list": {"i": ["1", "1", "1", "1"]}}, "num_args": {"i": "1"}, "fused_ops": {"list": {"s": ["Qmlhc0FkZA=="]}}, "TArgs": {"list": {"type": ["DT_FLOAT"]}}, "padding": {"s": "U0FNRQ=="}, "use_cudnn_on_gpu": {"b": true}, "leakyrelu_alpha": {"f": 0.2}, "epsilon": {"f": 0.0}, "T": {"type": "DT_FLOAT"}, "explicit_paddings": {"list": {}}, "dilations": {"list": {"i": ["1", "1", "1", "1"]}}}}, {"name": "model_27/tf.math.sigmoid_110/Sigmoid", "op": "Sigmoid", "input": ["model_27/tf.math.add_161/Add"], "attr": {"T": {"type": "DT_FLOAT"}}}, {"name": "model_27/tf.math.multiply_496/Mul", "op": "Mul", "input": ["model_27/tf.math.add_161/Add", "model_27/tf.math.sigmoid_110/Sigmoid"], "attr": {"T": {"type": "DT_FLOAT"}}}, {"name": "model_27/tf.math.add_162/Add", "op": "_FusedConv2D", "input": ["model_27/tf.math.multiply_496/Mul", "model_27/tf.nn.convolution_117/convolution/filter", "model_27/tf.math.add_162/Add/y"], "device": "/device:CPU:0", "attr": {"num_host_args": {"i": "0"}, "data_format": {"s": "TkhXQw=="}, "filter_format": {"s": "SFdJTw=="}, "fused_ops": {"list": {"s": ["Qmlhc0FkZA=="]}}, "num_args": {"i": "1"}, "strides": {"list": {"i": ["1", "1", "1", "1"]}}, "TArgs": {"list": {"type": ["DT_FLOAT"]}}, "padding": {"s": "U0FNRQ=="}, "use_cudnn_on_gpu": {"b": true}, "leakyrelu_alpha": {"f": 0.2}, "epsilon": {"f": 0.0}, "T": {"type": "DT_FLOAT"}, "explicit_paddings": {"list": {}}, "dilations": {"list": {"i": ["1", "1", "1", "1"]}}}}, {"name": "model_27/tf.math.sigmoid_111/Sigmoid", "op": "Sigmoid", "input": ["model_27/tf.math.add_162/Add"], "attr": {"T": {"type": "DT_FLOAT"}}}, {"name": "model_27/tf.math.multiply_500/Mul", "op": "Mul", "input": ["model_27/tf.math.add_162/Add", "model_27/tf.math.sigmoid_111/Sigmoid"], "attr": {"T": {"type": "DT_FLOAT"}}}, {"name": "model_27/tf.math.add_164/Add", "op": "AddV2", "input": ["model_27/tf.strided_slice_27/StridedSlice", "model_27/tf.math.multiply_500/Mul"], "attr": {"T": {"type": "DT_FLOAT"}}}, {"name": "model_27/tf.math.add_165/Add", "op": "_FusedConv2D", "input": ["model_27/tf.math.add_164/Add", "model_27/tf.nn.convolution_118/convolution/filter", "model_27/tf.math.add_165/Add/y"], "device": "/device:CPU:0", "attr": {"num_host_args": {"i": "0"}, "data_format": {"s": "TkhXQw=="}, "filter_format": {"s": "SFdJTw=="}, "strides": {"list": {"i": ["1", "1", "1", "1"]}}, "num_args": {"i": "1"}, "fused_ops": {"list": {"s": ["Qmlhc0FkZA=="]}}, "TArgs": {"list": {"type": ["DT_FLOAT"]}}, "padding": {"s": "U0FNRQ=="}, "use_cudnn_on_gpu": {"b": true}, "leakyrelu_alpha": {"f": 0.2}, "epsilon": {"f": 0.0}, "T": {"type": "DT_FLOAT"}, "explicit_paddings": {"list": {}}, "dilations": {"list": {"i": ["1", "1", "1", "1"]}}}}, {"name": "model_27/tf.math.sigmoid_112/Sigmoid", "op": "Sigmoid", "input": ["model_27/tf.math.add_165/Add"], "attr": {"T": {"type": "DT_FLOAT"}}}, {"name": "model_27/tf.math.multiply_506/Mul", "op": "Mul", "input": ["model_27/tf.math.add_165/Add", "model_27/tf.math.sigmoid_112/Sigmoid"], "attr": {"T": {"type": "DT_FLOAT"}}}, {"name": "model_27/tf.math.add_166/Add", "op": "_FusedConv2D", "input": ["model_27/tf.math.multiply_506/Mul", "model_27/tf.nn.convolution_119/convolution/filter", "model_27/tf.math.add_166/Add/y"], "device": "/device:CPU:0", "attr": {"num_host_args": {"i": "0"}, "data_format": {"s": "TkhXQw=="}, "filter_format": {"s": "SFdJTw=="}, "strides": {"list": {"i": ["1", "1", "1", "1"]}}, "num_args": {"i": "1"}, "fused_ops": {"list": {"s": ["Qmlhc0FkZA=="]}}, "TArgs": {"list": {"type": ["DT_FLOAT"]}}, "padding": {"s": "U0FNRQ=="}, "use_cudnn_on_gpu": {"b": true}, "leakyrelu_alpha": {"f": 0.2}, "epsilon": {"f": 0.0}, "T": {"type": "DT_FLOAT"}, "explicit_paddings": {"list": {}}, "dilations": {"list": {"i": ["1", "1", "1", "1"]}}}}, {"name": "model_27/tf.math.sigmoid_113/Sigmoid", "op": "Sigmoid", "input": ["model_27/tf.math.add_166/Add"], "attr": {"T": {"type": "DT_FLOAT"}}}, {"name": "model_27/tf.math.multiply_510/Mul", "op": "Mul", "input": ["model_27/tf.math.add_166/Add", "model_27/tf.math.sigmoid_113/Sigmoid"], "attr": {"T": {"type": "DT_FLOAT"}}}, {"name": "model_27/tf.math.add_168/Add", "op": "AddV2", "input": ["model_27/tf.math.add_164/Add", "model_27/tf.math.multiply_510/Mul"], "attr": {"T": {"type": "DT_FLOAT"}}}, {"name": "model_27/tf.concat_25/concat", "op": "ConcatV2", "input": ["model_27/tf.strided_slice_26/StridedSlice", "model_27/tf.strided_slice_27/StridedSlice", "model_27/tf.math.add_164/Add", "model_27/tf.math.add_168/Add", "model_27/tf.concat_25/concat/axis"], "attr": {"N": {"i": "4"}, "Tidx": {"type": "DT_INT32"}, "T": {"type": "DT_FLOAT"}}}, {"name": "model_27/tf.math.add_169/Add", "op": "_FusedConv2D", "input": ["model_27/tf.concat_25/concat", "model_27/tf.nn.convolution_120/convolution/filter", "model_27/tf.math.add_169/Add/y"], "device": "/device:CPU:0", "attr": {"num_host_args": {"i": "0"}, "data_format": {"s": "TkhXQw=="}, "filter_format": {"s": "SFdJTw=="}, "fused_ops": {"list": {"s": ["Qmlhc0FkZA=="]}}, "num_args": {"i": "1"}, "strides": {"list": {"i": ["1", "1", "1", "1"]}}, "TArgs": {"list": {"type": ["DT_FLOAT"]}}, "padding": {"s": "U0FNRQ=="}, "use_cudnn_on_gpu": {"b": true}, "leakyrelu_alpha": {"f": 0.2}, "epsilon": {"f": 0.0}, "T": {"type": "DT_FLOAT"}, "explicit_paddings": {"list": {}}, "dilations": {"list": {"i": ["1", "1", "1", "1"]}}}}, {"name": "model_27/tf.math.sigmoid_114/Sigmoid", "op": "Sigmoid", "input": ["model_27/tf.math.add_169/Add"], "attr": {"T": {"type": "DT_FLOAT"}}}, {"name": "model_27/tf.math.multiply_516/Mul", "op": "Mul", "input": ["model_27/tf.math.add_169/Add", "model_27/tf.math.sigmoid_114/Sigmoid"], "attr": {"T": {"type": "DT_FLOAT"}}}, {"name": "model_27/tf.math.add_170/Add", "op": "_FusedConv2D", "input": ["model_27/tf.math.multiply_516/Mul", "model_27/tf.nn.convolution_121/convolution/filter", "model_27/tf.math.add_170/Add/y"], "device": "/device:CPU:0", "attr": {"num_host_args": {"i": "0"}, "data_format": {"s": "TkhXQw=="}, "filter_format": {"s": "SFdJTw=="}, "strides": {"list": {"i": ["1", "1", "1", "1"]}}, "num_args": {"i": "1"}, "fused_ops": {"list": {"s": ["Qmlhc0FkZA=="]}}, "TArgs": {"list": {"type": ["DT_FLOAT"]}}, "padding": {"s": "U0FNRQ=="}, "use_cudnn_on_gpu": {"b": true}, "leakyrelu_alpha": {"f": 0.2}, "epsilon": {"f": 0.0}, "T": {"type": "DT_FLOAT"}, "explicit_paddings": {"list": {}}, "dilations": {"list": {"i": ["1", "1", "1", "1"]}}}}, {"name": "model_27/tf.math.sigmoid_115/Sigmoid", "op": "Sigmoid", "input": ["model_27/tf.math.add_170/Add"], "attr": {"T": {"type": "DT_FLOAT"}}}, {"name": "model_27/tf.math.multiply_520/Mul", "op": "Mul", "input": ["model_27/tf.math.add_170/Add", "model_27/tf.math.sigmoid_115/Sigmoid"], "attr": {"T": {"type": "DT_FLOAT"}}}, {"name": "model_27/tf.compat.v1.nn.pool_3/max_pool", "op": "MaxPool", "input": ["model_27/tf.math.multiply_520/Mul"], "attr": {"ksize": {"list": {"i": ["1", "5", "5", "1"]}}, "data_format": {"s": "TkhXQw=="}, "T": {"type": "DT_FLOAT"}, "explicit_paddings": {"list": {}}, "padding": {"s": "U0FNRQ=="}, "strides": {"list": {"i": ["1", "1", "1", "1"]}}}}, {"name": "model_27/tf.compat.v1.nn.pool_4/max_pool", "op": "MaxPool", "input": ["model_27/tf.compat.v1.nn.pool_3/max_pool"], "attr": {"ksize": {"list": {"i": ["1", "5", "5", "1"]}}, "data_format": {"s": "TkhXQw=="}, "T": {"type": "DT_FLOAT"}, "explicit_paddings": {"list": {}}, "padding": {"s": "U0FNRQ=="}, "strides": {"list": {"i": ["1", "1", "1", "1"]}}}}, {"name": "model_27/tf.compat.v1.nn.pool_5/max_pool", "op": "MaxPool", "input": ["model_27/tf.compat.v1.nn.pool_4/max_pool"], "attr": {"ksize": {"list": {"i": ["1", "5", "5", "1"]}}, "data_format": {"s": "TkhXQw=="}, "T": {"type": "DT_FLOAT"}, "explicit_paddings": {"list": {}}, "padding": {"s": "U0FNRQ=="}, "strides": {"list": {"i": ["1", "1", "1", "1"]}}}}, {"name": "model_27/tf.concat_26/concat", "op": "ConcatV2", "input": ["model_27/tf.math.multiply_520/Mul", "model_27/tf.compat.v1.nn.pool_3/max_pool", "model_27/tf.compat.v1.nn.pool_4/max_pool", "model_27/tf.compat.v1.nn.pool_5/max_pool", "model_27/tf.concat_26/concat/axis"], "attr": {"N": {"i": "4"}, "Tidx": {"type": "DT_INT32"}, "T": {"type": "DT_FLOAT"}}}, {"name": "model_27/tf.math.add_171/Add", "op": "_FusedConv2D", "input": ["model_27/tf.concat_26/concat", "model_27/tf.nn.convolution_122/convolution/filter", "model_27/tf.math.add_171/Add/y"], "device": "/device:CPU:0", "attr": {"num_host_args": {"i": "0"}, "data_format": {"s": "TkhXQw=="}, "filter_format": {"s": "SFdJTw=="}, "fused_ops": {"list": {"s": ["Qmlhc0FkZA=="]}}, "num_args": {"i": "1"}, "strides": {"list": {"i": ["1", "1", "1", "1"]}}, "TArgs": {"list": {"type": ["DT_FLOAT"]}}, "padding": {"s": "U0FNRQ=="}, "use_cudnn_on_gpu": {"b": true}, "leakyrelu_alpha": {"f": 0.2}, "epsilon": {"f": 0.0}, "T": {"type": "DT_FLOAT"}, "explicit_paddings": {"list": {}}, "dilations": {"list": {"i": ["1", "1", "1", "1"]}}}}, {"name": "model_27/tf.math.sigmoid_116/Sigmoid", "op": "Sigmoid", "input": ["model_27/tf.math.add_171/Add"], "attr": {"T": {"type": "DT_FLOAT"}}}, {"name": "model_27/tf.math.multiply_524/Mul", "op": "Mul", "input": ["model_27/tf.math.add_171/Add", "model_27/tf.math.sigmoid_116/Sigmoid"], "attr": {"T": {"type": "DT_FLOAT"}}}, {"name": "model_27/tf.image.resize_2/resize/ResizeNearestNeighbor", "op": "ResizeNearestNeighbor", "input": ["model_27/tf.math.multiply_524/Mul", "model_27/tf.image.resize_2/resize/size"], "attr": {"T": {"type": "DT_FLOAT"}, "align_corners": {"b": false}, "half_pixel_centers": {"b": true}}}, {"name": "model_27/tf.concat_27/concat", "op": "ConcatV2", "input": ["model_27/tf.image.resize_2/resize/ResizeNearestNeighbor", "model_27/tf.math.multiply_484/Mul", "model_27/tf.concat_27/concat/axis"], "attr": {"N": {"i": "2"}, "Tidx": {"type": "DT_INT32"}, "T": {"type": "DT_FLOAT"}}}, {"name": "model_27/tf.math.add_172/Add", "op": "_FusedConv2D", "input": ["model_27/tf.concat_27/concat", "model_27/tf.nn.convolution_123/convolution/filter", "model_27/tf.math.add_172/Add/y"], "device": "/device:CPU:0", "attr": {"num_host_args": {"i": "0"}, "data_format": {"s": "TkhXQw=="}, "filter_format": {"s": "SFdJTw=="}, "fused_ops": {"list": {"s": ["Qmlhc0FkZA=="]}}, "num_args": {"i": "1"}, "strides": {"list": {"i": ["1", "1", "1", "1"]}}, "TArgs": {"list": {"type": ["DT_FLOAT"]}}, "padding": {"s": "U0FNRQ=="}, "use_cudnn_on_gpu": {"b": true}, "leakyrelu_alpha": {"f": 0.2}, "epsilon": {"f": 0.0}, "T": {"type": "DT_FLOAT"}, "explicit_paddings": {"list": {}}, "dilations": {"list": {"i": ["1", "1", "1", "1"]}}}}, {"name": "model_27/tf.math.sigmoid_117/Sigmoid", "op": "Sigmoid", "input": ["model_27/tf.math.add_172/Add"], "attr": {"T": {"type": "DT_FLOAT"}}}, {"name": "model_27/tf.math.multiply_528/Mul", "op": "Mul", "input": ["model_27/tf.math.add_172/Add", "model_27/tf.math.sigmoid_117/Sigmoid"], "attr": {"T": {"type": "DT_FLOAT"}}}, {"name": "model_27/tf.strided_slice_28/StridedSlice", "op": "StridedSlice", "input": ["model_27/tf.math.multiply_528/Mul", "model_27/tf.strided_slice_28/ones_like/tensor", "model_27/tf.strided_slice_28/StridedSlice/end", "model_27/tf.strided_slice_28/ones_like"], "attr": {"shrink_axis_mask": {"i": "0"}, "Index": {"type": "DT_INT64"}, "new_axis_mask": {"i": "0"}, "begin_mask": {"i": "15"}, "end_mask": {"i": "7"}, "T": {"type": "DT_FLOAT"}, "ellipsis_mask": {"i": "0"}}}, {"name": "model_27/tf.strided_slice_29/StridedSlice", "op": "StridedSlice", "input": ["model_27/tf.math.multiply_528/Mul", "model_27/tf.strided_slice_29/ones_like/tensor", "model_27/tf.strided_slice_29/StridedSlice/end", "model_27/tf.strided_slice_29/ones_like"], "attr": {"shrink_axis_mask": {"i": "0"}, "new_axis_mask": {"i": "0"}, "Index": {"type": "DT_INT64"}, "begin_mask": {"i": "7"}, "end_mask": {"i": "7"}, "T": {"type": "DT_FLOAT"}, "ellipsis_mask": {"i": "0"}}}, {"name": "model_27/tf.math.add_173/Add", "op": "_FusedConv2D", "input": ["model_27/tf.strided_slice_29/StridedSlice", "model_27/tf.nn.convolution_124/convolution/filter", "model_27/tf.math.add_173/Add/y"], "device": "/device:CPU:0", "attr": {"num_host_args": {"i": "0"}, "data_format": {"s": "TkhXQw=="}, "filter_format": {"s": "SFdJTw=="}, "fused_ops": {"list": {"s": ["Qmlhc0FkZA=="]}}, "num_args": {"i": "1"}, "strides": {"list": {"i": ["1", "1", "1", "1"]}}, "TArgs": {"list": {"type": ["DT_FLOAT"]}}, "padding": {"s": "U0FNRQ=="}, "use_cudnn_on_gpu": {"b": true}, "leakyrelu_alpha": {"f": 0.2}, "epsilon": {"f": 0.0}, "T": {"type": "DT_FLOAT"}, "explicit_paddings": {"list": {}}, "dilations": {"list": {"i": ["1", "1", "1", "1"]}}}}, {"name": "model_27/tf.math.sigmoid_118/Sigmoid", "op": "Sigmoid", "input": ["model_27/tf.math.add_173/Add"], "attr": {"T": {"type": "DT_FLOAT"}}}, {"name": "model_27/tf.math.multiply_532/Mul", "op": "Mul", "input": ["model_27/tf.math.add_173/Add", "model_27/tf.math.sigmoid_118/Sigmoid"], "attr": {"T": {"type": "DT_FLOAT"}}}, {"name": "model_27/tf.math.add_174/Add", "op": "_FusedConv2D", "input": ["model_27/tf.math.multiply_532/Mul", "model_27/tf.nn.convolution_125/convolution/filter", "model_27/tf.math.add_174/Add/y"], "device": "/device:CPU:0", "attr": {"num_host_args": {"i": "0"}, "data_format": {"s": "TkhXQw=="}, "filter_format": {"s": "SFdJTw=="}, "strides": {"list": {"i": ["1", "1", "1", "1"]}}, "num_args": {"i": "1"}, "fused_ops": {"list": {"s": ["Qmlhc0FkZA=="]}}, "TArgs": {"list": {"type": ["DT_FLOAT"]}}, "padding": {"s": "U0FNRQ=="}, "use_cudnn_on_gpu": {"b": true}, "leakyrelu_alpha": {"f": 0.2}, "epsilon": {"f": 0.0}, "T": {"type": "DT_FLOAT"}, "explicit_paddings": {"list": {}}, "dilations": {"list": {"i": ["1", "1", "1", "1"]}}}}, {"name": "model_27/tf.math.sigmoid_119/Sigmoid", "op": "Sigmoid", "input": ["model_27/tf.math.add_174/Add"], "attr": {"T": {"type": "DT_FLOAT"}}}, {"name": "model_27/tf.math.multiply_536/Mul", "op": "Mul", "input": ["model_27/tf.math.add_174/Add", "model_27/tf.math.sigmoid_119/Sigmoid"], "attr": {"T": {"type": "DT_FLOAT"}}}, {"name": "model_27/tf.math.add_175/Add", "op": "_FusedConv2D", "input": ["model_27/tf.math.multiply_536/Mul", "model_27/tf.nn.convolution_126/convolution/filter", "model_27/tf.math.add_175/Add/y"], "device": "/device:CPU:0", "attr": {"num_host_args": {"i": "0"}, "data_format": {"s": "TkhXQw=="}, "filter_format": {"s": "SFdJTw=="}, "strides": {"list": {"i": ["1", "1", "1", "1"]}}, "num_args": {"i": "1"}, "fused_ops": {"list": {"s": ["Qmlhc0FkZA=="]}}, "TArgs": {"list": {"type": ["DT_FLOAT"]}}, "padding": {"s": "U0FNRQ=="}, "use_cudnn_on_gpu": {"b": true}, "leakyrelu_alpha": {"f": 0.2}, "epsilon": {"f": 0.0}, "T": {"type": "DT_FLOAT"}, "explicit_paddings": {"list": {}}, "dilations": {"list": {"i": ["1", "1", "1", "1"]}}}}, {"name": "model_27/tf.math.sigmoid_120/Sigmoid", "op": "Sigmoid", "input": ["model_27/tf.math.add_175/Add"], "attr": {"T": {"type": "DT_FLOAT"}}}, {"name": "model_27/tf.math.multiply_540/Mul", "op": "Mul", "input": ["model_27/tf.math.add_175/Add", "model_27/tf.math.sigmoid_120/Sigmoid"], "attr": {"T": {"type": "DT_FLOAT"}}}, {"name": "model_27/tf.math.add_176/Add", "op": "_FusedConv2D", "input": ["model_27/tf.math.multiply_540/Mul", "model_27/tf.nn.convolution_127/convolution/filter", "model_27/tf.math.add_176/Add/y"], "device": "/device:CPU:0", "attr": {"num_host_args": {"i": "0"}, "data_format": {"s": "TkhXQw=="}, "filter_format": {"s": "SFdJTw=="}, "strides": {"list": {"i": ["1", "1", "1", "1"]}}, "num_args": {"i": "1"}, "fused_ops": {"list": {"s": ["Qmlhc0FkZA=="]}}, "TArgs": {"list": {"type": ["DT_FLOAT"]}}, "padding": {"s": "U0FNRQ=="}, "use_cudnn_on_gpu": {"b": true}, "leakyrelu_alpha": {"f": 0.2}, "epsilon": {"f": 0.0}, "T": {"type": "DT_FLOAT"}, "explicit_paddings": {"list": {}}, "dilations": {"list": {"i": ["1", "1", "1", "1"]}}}}, {"name": "model_27/tf.math.sigmoid_121/Sigmoid", "op": "Sigmoid", "input": ["model_27/tf.math.add_176/Add"], "attr": {"T": {"type": "DT_FLOAT"}}}, {"name": "model_27/tf.math.multiply_544/Mul", "op": "Mul", "input": ["model_27/tf.math.add_176/Add", "model_27/tf.math.sigmoid_121/Sigmoid"], "attr": {"T": {"type": "DT_FLOAT"}}}, {"name": "model_27/tf.concat_28/concat", "op": "ConcatV2", "input": ["model_27/tf.strided_slice_28/StridedSlice", "model_27/tf.strided_slice_29/StridedSlice", "model_27/tf.math.multiply_536/Mul", "model_27/tf.math.multiply_544/Mul", "model_27/tf.concat_28/concat/axis"], "attr": {"N": {"i": "4"}, "T": {"type": "DT_FLOAT"}, "Tidx": {"type": "DT_INT32"}}}, {"name": "model_27/tf.math.add_177/Add", "op": "_FusedConv2D", "input": ["model_27/tf.concat_28/concat", "model_27/tf.nn.convolution_128/convolution/filter", "model_27/tf.math.add_177/Add/y"], "device": "/device:CPU:0", "attr": {"num_host_args": {"i": "0"}, "data_format": {"s": "TkhXQw=="}, "filter_format": {"s": "SFdJTw=="}, "strides": {"list": {"i": ["1", "1", "1", "1"]}}, "num_args": {"i": "1"}, "fused_ops": {"list": {"s": ["Qmlhc0FkZA=="]}}, "TArgs": {"list": {"type": ["DT_FLOAT"]}}, "padding": {"s": "U0FNRQ=="}, "use_cudnn_on_gpu": {"b": true}, "leakyrelu_alpha": {"f": 0.2}, "epsilon": {"f": 0.0}, "T": {"type": "DT_FLOAT"}, "explicit_paddings": {"list": {}}, "dilations": {"list": {"i": ["1", "1", "1", "1"]}}}}, {"name": "model_27/tf.math.sigmoid_122/Sigmoid", "op": "Sigmoid", "input": ["model_27/tf.math.add_177/Add"], "attr": {"T": {"type": "DT_FLOAT"}}}, {"name": "model_27/tf.math.multiply_548/Mul", "op": "Mul", "input": ["model_27/tf.math.add_177/Add", "model_27/tf.math.sigmoid_122/Sigmoid"], "attr": {"T": {"type": "DT_FLOAT"}}}, {"name": "model_27/tf.image.resize_3/resize/ResizeNearestNeighbor", "op": "ResizeNearestNeighbor", "input": ["model_27/tf.math.multiply_548/Mul", "model_27/tf.image.resize_3/resize/size"], "attr": {"T": {"type": "DT_FLOAT"}, "align_corners": {"b": false}, "half_pixel_centers": {"b": true}}}, {"name": "model_27/tf.concat_29/concat", "op": "ConcatV2", "input": ["model_27/tf.image.resize_3/resize/ResizeNearestNeighbor", "model_27/tf.math.multiply_432/Mul", "model_27/tf.concat_29/concat/axis"], "attr": {"N": {"i": "2"}, "T": {"type": "DT_FLOAT"}, "Tidx": {"type": "DT_INT32"}}}, {"name": "model_27/tf.math.add_178/Add", "op": "_FusedConv2D", "input": ["model_27/tf.concat_29/concat", "model_27/tf.nn.convolution_129/convolution/filter", "model_27/tf.math.add_178/Add/y"], "device": "/device:CPU:0", "attr": {"num_host_args": {"i": "0"}, "data_format": {"s": "TkhXQw=="}, "filter_format": {"s": "SFdJTw=="}, "fused_ops": {"list": {"s": ["Qmlhc0FkZA=="]}}, "num_args": {"i": "1"}, "strides": {"list": {"i": ["1", "1", "1", "1"]}}, "TArgs": {"list": {"type": ["DT_FLOAT"]}}, "padding": {"s": "U0FNRQ=="}, "use_cudnn_on_gpu": {"b": true}, "leakyrelu_alpha": {"f": 0.2}, "epsilon": {"f": 0.0}, "T": {"type": "DT_FLOAT"}, "explicit_paddings": {"list": {}}, "dilations": {"list": {"i": ["1", "1", "1", "1"]}}}}, {"name": "model_27/tf.math.sigmoid_123/Sigmoid", "op": "Sigmoid", "input": ["model_27/tf.math.add_178/Add"], "attr": {"T": {"type": "DT_FLOAT"}}}, {"name": "model_27/tf.math.multiply_552/Mul", "op": "Mul", "input": ["model_27/tf.math.add_178/Add", "model_27/tf.math.sigmoid_123/Sigmoid"], "attr": {"T": {"type": "DT_FLOAT"}}}, {"name": "model_27/tf.strided_slice_30/StridedSlice", "op": "StridedSlice", "input": ["model_27/tf.math.multiply_552/Mul", "model_27/tf.strided_slice_30/ones_like/tensor", "model_27/tf.strided_slice_30/StridedSlice/end", "model_27/tf.strided_slice_30/ones_like"], "attr": {"shrink_axis_mask": {"i": "0"}, "new_axis_mask": {"i": "0"}, "Index": {"type": "DT_INT64"}, "begin_mask": {"i": "15"}, "end_mask": {"i": "7"}, "T": {"type": "DT_FLOAT"}, "ellipsis_mask": {"i": "0"}}}, {"name": "model_27/tf.strided_slice_31/StridedSlice", "op": "StridedSlice", "input": ["model_27/tf.math.multiply_552/Mul", "model_27/tf.strided_slice_31/ones_like/tensor", "model_27/tf.strided_slice_31/StridedSlice/end", "model_27/tf.strided_slice_31/ones_like"], "attr": {"shrink_axis_mask": {"i": "0"}, "new_axis_mask": {"i": "0"}, "Index": {"type": "DT_INT64"}, "begin_mask": {"i": "7"}, "T": {"type": "DT_FLOAT"}, "end_mask": {"i": "7"}, "ellipsis_mask": {"i": "0"}}}, {"name": "model_27/tf.math.add_179/Add", "op": "_FusedConv2D", "input": ["model_27/tf.strided_slice_31/StridedSlice", "model_27/tf.nn.convolution_130/convolution/filter", "model_27/tf.math.add_179/Add/y"], "device": "/device:CPU:0", "attr": {"num_host_args": {"i": "0"}, "data_format": {"s": "TkhXQw=="}, "filter_format": {"s": "SFdJTw=="}, "strides": {"list": {"i": ["1", "1", "1", "1"]}}, "num_args": {"i": "1"}, "fused_ops": {"list": {"s": ["Qmlhc0FkZA=="]}}, "TArgs": {"list": {"type": ["DT_FLOAT"]}}, "padding": {"s": "U0FNRQ=="}, "use_cudnn_on_gpu": {"b": true}, "leakyrelu_alpha": {"f": 0.2}, "epsilon": {"f": 0.0}, "T": {"type": "DT_FLOAT"}, "explicit_paddings": {"list": {}}, "dilations": {"list": {"i": ["1", "1", "1", "1"]}}}}, {"name": "model_27/tf.math.sigmoid_124/Sigmoid", "op": "Sigmoid", "input": ["model_27/tf.math.add_179/Add"], "attr": {"T": {"type": "DT_FLOAT"}}}, {"name": "model_27/tf.math.multiply_556/Mul", "op": "Mul", "input": ["model_27/tf.math.add_179/Add", "model_27/tf.math.sigmoid_124/Sigmoid"], "attr": {"T": {"type": "DT_FLOAT"}}}, {"name": "model_27/tf.math.add_180/Add", "op": "_FusedConv2D", "input": ["model_27/tf.math.multiply_556/Mul", "model_27/tf.nn.convolution_131/convolution/filter", "model_27/tf.math.add_180/Add/y"], "device": "/device:CPU:0", "attr": {"num_host_args": {"i": "0"}, "data_format": {"s": "TkhXQw=="}, "filter_format": {"s": "SFdJTw=="}, "fused_ops": {"list": {"s": ["Qmlhc0FkZA=="]}}, "num_args": {"i": "1"}, "strides": {"list": {"i": ["1", "1", "1", "1"]}}, "TArgs": {"list": {"type": ["DT_FLOAT"]}}, "padding": {"s": "U0FNRQ=="}, "use_cudnn_on_gpu": {"b": true}, "leakyrelu_alpha": {"f": 0.2}, "epsilon": {"f": 0.0}, "T": {"type": "DT_FLOAT"}, "explicit_paddings": {"list": {}}, "dilations": {"list": {"i": ["1", "1", "1", "1"]}}}}, {"name": "model_27/tf.math.sigmoid_125/Sigmoid", "op": "Sigmoid", "input": ["model_27/tf.math.add_180/Add"], "attr": {"T": {"type": "DT_FLOAT"}}}, {"name": "model_27/tf.math.multiply_560/Mul", "op": "Mul", "input": ["model_27/tf.math.add_180/Add", "model_27/tf.math.sigmoid_125/Sigmoid"], "attr": {"T": {"type": "DT_FLOAT"}}}, {"name": "model_27/tf.math.add_181/Add", "op": "_FusedConv2D", "input": ["model_27/tf.math.multiply_560/Mul", "model_27/tf.nn.convolution_132/convolution/filter", "model_27/tf.math.add_181/Add/y"], "device": "/device:CPU:0", "attr": {"num_host_args": {"i": "0"}, "data_format": {"s": "TkhXQw=="}, "filter_format": {"s": "SFdJTw=="}, "strides": {"list": {"i": ["1", "1", "1", "1"]}}, "num_args": {"i": "1"}, "fused_ops": {"list": {"s": ["Qmlhc0FkZA=="]}}, "TArgs": {"list": {"type": ["DT_FLOAT"]}}, "padding": {"s": "U0FNRQ=="}, "use_cudnn_on_gpu": {"b": true}, "leakyrelu_alpha": {"f": 0.2}, "epsilon": {"f": 0.0}, "T": {"type": "DT_FLOAT"}, "explicit_paddings": {"list": {}}, "dilations": {"list": {"i": ["1", "1", "1", "1"]}}}}, {"name": "model_27/tf.math.sigmoid_126/Sigmoid", "op": "Sigmoid", "input": ["model_27/tf.math.add_181/Add"], "attr": {"T": {"type": "DT_FLOAT"}}}, {"name": "model_27/tf.math.multiply_564/Mul", "op": "Mul", "input": ["model_27/tf.math.add_181/Add", "model_27/tf.math.sigmoid_126/Sigmoid"], "attr": {"T": {"type": "DT_FLOAT"}}}, {"name": "model_27/tf.math.add_182/Add", "op": "_FusedConv2D", "input": ["model_27/tf.math.multiply_564/Mul", "model_27/tf.nn.convolution_133/convolution/filter", "model_27/tf.math.add_182/Add/y"], "device": "/device:CPU:0", "attr": {"num_host_args": {"i": "0"}, "data_format": {"s": "TkhXQw=="}, "filter_format": {"s": "SFdJTw=="}, "strides": {"list": {"i": ["1", "1", "1", "1"]}}, "num_args": {"i": "1"}, "fused_ops": {"list": {"s": ["Qmlhc0FkZA=="]}}, "TArgs": {"list": {"type": ["DT_FLOAT"]}}, "padding": {"s": "U0FNRQ=="}, "use_cudnn_on_gpu": {"b": true}, "leakyrelu_alpha": {"f": 0.2}, "epsilon": {"f": 0.0}, "T": {"type": "DT_FLOAT"}, "explicit_paddings": {"list": {}}, "dilations": {"list": {"i": ["1", "1", "1", "1"]}}}}, {"name": "model_27/tf.math.sigmoid_127/Sigmoid", "op": "Sigmoid", "input": ["model_27/tf.math.add_182/Add"], "attr": {"T": {"type": "DT_FLOAT"}}}, {"name": "model_27/tf.math.multiply_568/Mul", "op": "Mul", "input": ["model_27/tf.math.add_182/Add", "model_27/tf.math.sigmoid_127/Sigmoid"], "attr": {"T": {"type": "DT_FLOAT"}}}, {"name": "model_27/tf.concat_30/concat", "op": "ConcatV2", "input": ["model_27/tf.strided_slice_30/StridedSlice", "model_27/tf.strided_slice_31/StridedSlice", "model_27/tf.math.multiply_560/Mul", "model_27/tf.math.multiply_568/Mul", "model_27/tf.concat_30/concat/axis"], "attr": {"N": {"i": "4"}, "T": {"type": "DT_FLOAT"}, "Tidx": {"type": "DT_INT32"}}}, {"name": "model_27/tf.math.add_183/Add", "op": "_FusedConv2D", "input": ["model_27/tf.concat_30/concat", "model_27/tf.nn.convolution_134/convolution/filter", "model_27/tf.math.add_183/Add/y"], "device": "/device:CPU:0", "attr": {"num_host_args": {"i": "0"}, "data_format": {"s": "TkhXQw=="}, "filter_format": {"s": "SFdJTw=="}, "fused_ops": {"list": {"s": ["Qmlhc0FkZA=="]}}, "num_args": {"i": "1"}, "strides": {"list": {"i": ["1", "1", "1", "1"]}}, "TArgs": {"list": {"type": ["DT_FLOAT"]}}, "padding": {"s": "U0FNRQ=="}, "use_cudnn_on_gpu": {"b": true}, "leakyrelu_alpha": {"f": 0.2}, "epsilon": {"f": 0.0}, "T": {"type": "DT_FLOAT"}, "explicit_paddings": {"list": {}}, "dilations": {"list": {"i": ["1", "1", "1", "1"]}}}}, {"name": "model_27/tf.math.sigmoid_128/Sigmoid", "op": "Sigmoid", "input": ["model_27/tf.math.add_183/Add"], "attr": {"T": {"type": "DT_FLOAT"}}}, {"name": "model_27/tf.math.multiply_572/Mul", "op": "Mul", "input": ["model_27/tf.math.add_183/Add", "model_27/tf.math.sigmoid_128/Sigmoid"], "attr": {"T": {"type": "DT_FLOAT"}}}, {"name": "model_27/tf.math.add_185/Add", "op": "_FusedConv2D", "input": ["model_27/tf.math.multiply_572/Mul", "model_27/tf.nn.convolution_136/convolution/filter", "model_27/tf.math.add_185/Add/y"], "device": "/device:CPU:0", "attr": {"num_host_args": {"i": "0"}, "data_format": {"s": "TkhXQw=="}, "filter_format": {"s": "SFdJTw=="}, "fused_ops": {"list": {"s": ["Qmlhc0FkZA=="]}}, "num_args": {"i": "1"}, "strides": {"list": {"i": ["1", "1", "1", "1"]}}, "TArgs": {"list": {"type": ["DT_FLOAT"]}}, "padding": {"s": "U0FNRQ=="}, "use_cudnn_on_gpu": {"b": true}, "leakyrelu_alpha": {"f": 0.2}, "epsilon": {"f": 0.0}, "T": {"type": "DT_FLOAT"}, "explicit_paddings": {"list": {}}, "dilations": {"list": {"i": ["1", "1", "1", "1"]}}}}, {"name": "model_27/tf.math.add_186/Add", "op": "_FusedConv2D", "input": ["model_27/tf.math.multiply_572/Mul", "model_27/tf.nn.convolution_137/convolution/filter", "model_27/tf.math.add_186/Add/y"], "device": "/device:CPU:0", "attr": {"num_host_args": {"i": "0"}, "data_format": {"s": "TkhXQw=="}, "filter_format": {"s": "SFdJTw=="}, "fused_ops": {"list": {"s": ["Qmlhc0FkZA=="]}}, "num_args": {"i": "1"}, "strides": {"list": {"i": ["1", "1", "1", "1"]}}, "TArgs": {"list": {"type": ["DT_FLOAT"]}}, "padding": {"s": "U0FNRQ=="}, "use_cudnn_on_gpu": {"b": true}, "leakyrelu_alpha": {"f": 0.2}, "epsilon": {"f": 0.0}, "T": {"type": "DT_FLOAT"}, "explicit_paddings": {"list": {}}, "dilations": {"list": {"i": ["1", "1", "1", "1"]}}}}, {"name": "model_27/tf.compat.v1.pad_12/Pad", "op": "Pad", "input": ["model_27/tf.math.multiply_572/Mul", "model_27/tf.compat.v1.pad_12/Pad/paddings"], "attr": {"Tpaddings": {"type": "DT_INT32"}, "T": {"type": "DT_FLOAT"}}}, {"name": "model_27/tf.math.sigmoid_130/Sigmoid", "op": "Sigmoid", "input": ["model_27/tf.math.add_185/Add"], "attr": {"T": {"type": "DT_FLOAT"}}}, {"name": "model_27/tf.math.sigmoid_131/Sigmoid", "op": "Sigmoid", "input": ["model_27/tf.math.add_186/Add"], "attr": {"T": {"type": "DT_FLOAT"}}}, {"name": "model_27/tf.math.add_184/Add", "op": "_FusedConv2D", "input": ["model_27/tf.compat.v1.pad_12/Pad", "model_27/tf.nn.convolution_135/convolution/filter", "model_27/tf.math.add_184/Add/y"], "device": "/device:CPU:0", "attr": {"num_host_args": {"i": "0"}, "data_format": {"s": "TkhXQw=="}, "filter_format": {"s": "SFdJTw=="}, "strides": {"list": {"i": ["1", "2", "2", "1"]}}, "num_args": {"i": "1"}, "fused_ops": {"list": {"s": ["Qmlhc0FkZA=="]}}, "TArgs": {"list": {"type": ["DT_FLOAT"]}}, "padding": {"s": "VkFMSUQ="}, "use_cudnn_on_gpu": {"b": true}, "leakyrelu_alpha": {"f": 0.2}, "epsilon": {"f": 0.0}, "T": {"type": "DT_FLOAT"}, "explicit_paddings": {"list": {}}, "dilations": {"list": {"i": ["1", "1", "1", "1"]}}}}, {"name": "model_27/tf.math.multiply_580/Mul", "op": "Mul", "input": ["model_27/tf.math.add_185/Add", "model_27/tf.math.sigmoid_130/Sigmoid"], "attr": {"T": {"type": "DT_FLOAT"}}}, {"name": "model_27/tf.math.multiply_584/Mul", "op": "Mul", "input": ["model_27/tf.math.add_186/Add", "model_27/tf.math.sigmoid_131/Sigmoid"], "attr": {"T": {"type": "DT_FLOAT"}}}, {"name": "model_27/tf.math.sigmoid_129/Sigmoid", "op": "Sigmoid", "input": ["model_27/tf.math.add_184/Add"], "attr": {"T": {"type": "DT_FLOAT"}}}, {"name": "model_27/tf.math.add_187/Add", "op": "_FusedConv2D", "input": ["model_27/tf.math.multiply_580/Mul", "model_27/tf.nn.convolution_138/convolution/filter", "model_27/tf.math.add_187/Add/y"], "device": "/device:CPU:0", "attr": {"num_host_args": {"i": "0"}, "data_format": {"s": "TkhXQw=="}, "filter_format": {"s": "SFdJTw=="}, "strides": {"list": {"i": ["1", "1", "1", "1"]}}, "num_args": {"i": "1"}, "fused_ops": {"list": {"s": ["Qmlhc0FkZA=="]}}, "TArgs": {"list": {"type": ["DT_FLOAT"]}}, "padding": {"s": "U0FNRQ=="}, "use_cudnn_on_gpu": {"b": true}, "leakyrelu_alpha": {"f": 0.2}, "epsilon": {"f": 0.0}, "T": {"type": "DT_FLOAT"}, "explicit_paddings": {"list": {}}, "dilations": {"list": {"i": ["1", "1", "1", "1"]}}}}, {"name": "model_27/tf.math.add_188/Add", "op": "_FusedConv2D", "input": ["model_27/tf.math.multiply_584/Mul", "model_27/tf.nn.convolution_139/convolution/filter", "model_27/tf.math.add_188/Add/y"], "device": "/device:CPU:0", "attr": {"num_host_args": {"i": "0"}, "data_format": {"s": "TkhXQw=="}, "filter_format": {"s": "SFdJTw=="}, "strides": {"list": {"i": ["1", "1", "1", "1"]}}, "num_args": {"i": "1"}, "fused_ops": {"list": {"s": ["Qmlhc0FkZA=="]}}, "TArgs": {"list": {"type": ["DT_FLOAT"]}}, "padding": {"s": "U0FNRQ=="}, "use_cudnn_on_gpu": {"b": true}, "leakyrelu_alpha": {"f": 0.2}, "epsilon": {"f": 0.0}, "T": {"type": "DT_FLOAT"}, "explicit_paddings": {"list": {}}, "dilations": {"list": {"i": ["1", "1", "1", "1"]}}}}, {"name": "model_27/tf.math.multiply_576/Mul", "op": "Mul", "input": ["model_27/tf.math.add_184/Add", "model_27/tf.math.sigmoid_129/Sigmoid"], "attr": {"T": {"type": "DT_FLOAT"}}}, {"name": "model_27/tf.math.sigmoid_132/Sigmoid", "op": "Sigmoid", "input": ["model_27/tf.math.add_187/Add"], "attr": {"T": {"type": "DT_FLOAT"}}}, {"name": "model_27/tf.math.sigmoid_133/Sigmoid", "op": "Sigmoid", "input": ["model_27/tf.math.add_188/Add"], "attr": {"T": {"type": "DT_FLOAT"}}}, {"name": "model_27/tf.concat_31/concat", "op": "ConcatV2", "input": ["model_27/tf.math.multiply_576/Mul", "model_27/tf.math.multiply_548/Mul", "model_27/tf.concat_31/concat/axis"], "attr": {"N": {"i": "2"}, "T": {"type": "DT_FLOAT"}, "Tidx": {"type": "DT_INT32"}}}, {"name": "model_27/tf.math.multiply_588/Mul", "op": "Mul", "input": ["model_27/tf.math.add_187/Add", "model_27/tf.math.sigmoid_132/Sigmoid"], "attr": {"T": {"type": "DT_FLOAT"}}}, {"name": "model_27/tf.math.multiply_592/Mul", "op": "Mul", "input": ["model_27/tf.math.add_188/Add", "model_27/tf.math.sigmoid_133/Sigmoid"], "attr": {"T": {"type": "DT_FLOAT"}}}, {"name": "model_27/tf.math.add_189/Add", "op": "_FusedConv2D", "input": ["model_27/tf.concat_31/concat", "model_27/tf.nn.convolution_140/convolution/filter", "model_27/tf.math.add_189/Add/y"], "device": "/device:CPU:0", "attr": {"num_host_args": {"i": "0"}, "data_format": {"s": "TkhXQw=="}, "filter_format": {"s": "SFdJTw=="}, "fused_ops": {"list": {"s": ["Qmlhc0FkZA=="]}}, "num_args": {"i": "1"}, "strides": {"list": {"i": ["1", "1", "1", "1"]}}, "TArgs": {"list": {"type": ["DT_FLOAT"]}}, "padding": {"s": "U0FNRQ=="}, "use_cudnn_on_gpu": {"b": true}, "leakyrelu_alpha": {"f": 0.2}, "epsilon": {"f": 0.0}, "T": {"type": "DT_FLOAT"}, "explicit_paddings": {"list": {}}, "dilations": {"list": {"i": ["1", "1", "1", "1"]}}}}, {"name": "model_27/tf.math.add_190/Add", "op": "_FusedConv2D", "input": ["model_27/tf.math.multiply_588/Mul", "model_27/tf.nn.convolution_141/convolution/filter", "model_27/tf.math.add_190/Add/y"], "device": "/device:CPU:0", "attr": {"num_host_args": {"i": "0"}, "data_format": {"s": "TkhXQw=="}, "filter_format": {"s": "SFdJTw=="}, "strides": {"list": {"i": ["1", "1", "1", "1"]}}, "num_args": {"i": "1"}, "fused_ops": {"list": {"s": ["Qmlhc0FkZA=="]}}, "TArgs": {"list": {"type": ["DT_FLOAT"]}}, "padding": {"s": "U0FNRQ=="}, "use_cudnn_on_gpu": {"b": true}, "leakyrelu_alpha": {"f": 0.2}, "epsilon": {"f": 0.0}, "T": {"type": "DT_FLOAT"}, "explicit_paddings": {"list": {}}, "dilations": {"list": {"i": ["1", "1", "1", "1"]}}}}, {"name": "model_27/tf.math.add_191/Add", "op": "_FusedConv2D", "input": ["model_27/tf.math.multiply_592/Mul", "model_27/tf.nn.convolution_142/convolution/filter", "model_27/tf.math.add_191/Add/y"], "device": "/device:CPU:0", "attr": {"num_host_args": {"i": "0"}, "data_format": {"s": "TkhXQw=="}, "filter_format": {"s": "SFdJTw=="}, "strides": {"list": {"i": ["1", "1", "1", "1"]}}, "num_args": {"i": "1"}, "fused_ops": {"list": {"s": ["Qmlhc0FkZA=="]}}, "TArgs": {"list": {"type": ["DT_FLOAT"]}}, "padding": {"s": "U0FNRQ=="}, "use_cudnn_on_gpu": {"b": true}, "leakyrelu_alpha": {"f": 0.2}, "epsilon": {"f": 0.0}, "T": {"type": "DT_FLOAT"}, "explicit_paddings": {"list": {}}, "dilations": {"list": {"i": ["1", "1", "1", "1"]}}}}, {"name": "model_27/tf.math.sigmoid_134/Sigmoid", "op": "Sigmoid", "input": ["model_27/tf.math.add_189/Add"], "attr": {"T": {"type": "DT_FLOAT"}}}, {"name": "model_27/tf.concat_32/concat", "op": "ConcatV2", "input": ["model_27/tf.math.add_190/Add", "model_27/tf.math.add_191/Add", "model_27/tf.concat_32/concat/axis"], "attr": {"N": {"i": "2"}, "T": {"type": "DT_FLOAT"}, "Tidx": {"type": "DT_INT32"}}}, {"name": "model_27/tf.math.multiply_596/Mul", "op": "Mul", "input": ["model_27/tf.math.add_189/Add", "model_27/tf.math.sigmoid_134/Sigmoid"], "attr": {"T": {"type": "DT_FLOAT"}}}, {"name": "model_27/tf.compat.v1.transpose_188/transpose", "op": "Transpose", "input": ["model_27/tf.concat_32/concat", "model_27/tf.compat.v1.transpose_188/transpose/perm"], "attr": {"Tperm": {"type": "DT_INT32"}, "T": {"type": "DT_FLOAT"}}}, {"name": "model_27/tf.strided_slice_32/StridedSlice", "op": "StridedSlice", "input": ["model_27/tf.math.multiply_596/Mul", "model_27/tf.strided_slice_32/ones_like/tensor", "model_27/tf.strided_slice_32/StridedSlice/end", "model_27/tf.strided_slice_32/ones_like"], "attr": {"shrink_axis_mask": {"i": "0"}, "new_axis_mask": {"i": "0"}, "Index": {"type": "DT_INT64"}, "begin_mask": {"i": "15"}, "T": {"type": "DT_FLOAT"}, "end_mask": {"i": "7"}, "ellipsis_mask": {"i": "0"}}}, {"name": "model_27/tf.strided_slice_33/StridedSlice", "op": "StridedSlice", "input": ["model_27/tf.math.multiply_596/Mul", "model_27/tf.strided_slice_33/ones_like/tensor", "model_27/tf.strided_slice_33/StridedSlice/end", "model_27/tf.strided_slice_33/ones_like"], "attr": {"shrink_axis_mask": {"i": "0"}, "new_axis_mask": {"i": "0"}, "Index": {"type": "DT_INT64"}, "begin_mask": {"i": "7"}, "T": {"type": "DT_FLOAT"}, "end_mask": {"i": "7"}, "ellipsis_mask": {"i": "0"}}}, {"name": "model_27/tf.reshape_17/Reshape", "op": "Reshape", "input": ["model_27/tf.compat.v1.transpose_188/transpose", "model_27/tf.reshape_17/Reshape/shape"], "attr": {"T": {"type": "DT_FLOAT"}, "Tshape": {"type": "DT_INT32"}}}, {"name": "model_27/tf.math.add_192/Add", "op": "_FusedConv2D", "input": ["model_27/tf.strided_slice_33/StridedSlice", "model_27/tf.nn.convolution_143/convolution/filter", "model_27/tf.math.add_192/Add/y"], "device": "/device:CPU:0", "attr": {"num_host_args": {"i": "0"}, "data_format": {"s": "TkhXQw=="}, "filter_format": {"s": "SFdJTw=="}, "fused_ops": {"list": {"s": ["Qmlhc0FkZA=="]}}, "num_args": {"i": "1"}, "strides": {"list": {"i": ["1", "1", "1", "1"]}}, "TArgs": {"list": {"type": ["DT_FLOAT"]}}, "padding": {"s": "U0FNRQ=="}, "use_cudnn_on_gpu": {"b": true}, "leakyrelu_alpha": {"f": 0.2}, "epsilon": {"f": 0.0}, "T": {"type": "DT_FLOAT"}, "explicit_paddings": {"list": {}}, "dilations": {"list": {"i": ["1", "1", "1", "1"]}}}}, {"name": "model_27/tf.math.sigmoid_135/Sigmoid", "op": "Sigmoid", "input": ["model_27/tf.math.add_192/Add"], "attr": {"T": {"type": "DT_FLOAT"}}}, {"name": "model_27/tf.math.multiply_600/Mul", "op": "Mul", "input": ["model_27/tf.math.add_192/Add", "model_27/tf.math.sigmoid_135/Sigmoid"], "attr": {"T": {"type": "DT_FLOAT"}}}, {"name": "model_27/tf.math.add_193/Add", "op": "_FusedConv2D", "input": ["model_27/tf.math.multiply_600/Mul", "model_27/tf.nn.convolution_144/convolution/filter", "model_27/tf.math.add_193/Add/y"], "device": "/device:CPU:0", "attr": {"num_host_args": {"i": "0"}, "data_format": {"s": "TkhXQw=="}, "filter_format": {"s": "SFdJTw=="}, "strides": {"list": {"i": ["1", "1", "1", "1"]}}, "num_args": {"i": "1"}, "fused_ops": {"list": {"s": ["Qmlhc0FkZA=="]}}, "TArgs": {"list": {"type": ["DT_FLOAT"]}}, "padding": {"s": "U0FNRQ=="}, "use_cudnn_on_gpu": {"b": true}, "leakyrelu_alpha": {"f": 0.2}, "epsilon": {"f": 0.0}, "T": {"type": "DT_FLOAT"}, "explicit_paddings": {"list": {}}, "dilations": {"list": {"i": ["1", "1", "1", "1"]}}}}, {"name": "model_27/tf.math.sigmoid_136/Sigmoid", "op": "Sigmoid", "input": ["model_27/tf.math.add_193/Add"], "attr": {"T": {"type": "DT_FLOAT"}}}, {"name": "model_27/tf.math.multiply_604/Mul", "op": "Mul", "input": ["model_27/tf.math.add_193/Add", "model_27/tf.math.sigmoid_136/Sigmoid"], "attr": {"T": {"type": "DT_FLOAT"}}}, {"name": "model_27/tf.math.add_194/Add", "op": "_FusedConv2D", "input": ["model_27/tf.math.multiply_604/Mul", "model_27/tf.nn.convolution_145/convolution/filter", "model_27/tf.math.add_194/Add/y"], "device": "/device:CPU:0", "attr": {"num_host_args": {"i": "0"}, "data_format": {"s": "TkhXQw=="}, "filter_format": {"s": "SFdJTw=="}, "fused_ops": {"list": {"s": ["Qmlhc0FkZA=="]}}, "num_args": {"i": "1"}, "strides": {"list": {"i": ["1", "1", "1", "1"]}}, "TArgs": {"list": {"type": ["DT_FLOAT"]}}, "padding": {"s": "U0FNRQ=="}, "use_cudnn_on_gpu": {"b": true}, "leakyrelu_alpha": {"f": 0.2}, "epsilon": {"f": 0.0}, "T": {"type": "DT_FLOAT"}, "explicit_paddings": {"list": {}}, "dilations": {"list": {"i": ["1", "1", "1", "1"]}}}}, {"name": "model_27/tf.math.sigmoid_137/Sigmoid", "op": "Sigmoid", "input": ["model_27/tf.math.add_194/Add"], "attr": {"T": {"type": "DT_FLOAT"}}}, {"name": "model_27/tf.math.multiply_608/Mul", "op": "Mul", "input": ["model_27/tf.math.add_194/Add", "model_27/tf.math.sigmoid_137/Sigmoid"], "attr": {"T": {"type": "DT_FLOAT"}}}, {"name": "model_27/tf.math.add_195/Add", "op": "_FusedConv2D", "input": ["model_27/tf.math.multiply_608/Mul", "model_27/tf.nn.convolution_146/convolution/filter", "model_27/tf.math.add_195/Add/y"], "device": "/device:CPU:0", "attr": {"num_host_args": {"i": "0"}, "data_format": {"s": "TkhXQw=="}, "filter_format": {"s": "SFdJTw=="}, "strides": {"list": {"i": ["1", "1", "1", "1"]}}, "num_args": {"i": "1"}, "fused_ops": {"list": {"s": ["Qmlhc0FkZA=="]}}, "TArgs": {"list": {"type": ["DT_FLOAT"]}}, "padding": {"s": "U0FNRQ=="}, "use_cudnn_on_gpu": {"b": true}, "leakyrelu_alpha": {"f": 0.2}, "epsilon": {"f": 0.0}, "T": {"type": "DT_FLOAT"}, "explicit_paddings": {"list": {}}, "dilations": {"list": {"i": ["1", "1", "1", "1"]}}}}, {"name": "model_27/tf.math.sigmoid_138/Sigmoid", "op": "Sigmoid", "input": ["model_27/tf.math.add_195/Add"], "attr": {"T": {"type": "DT_FLOAT"}}}, {"name": "model_27/tf.math.multiply_612/Mul", "op": "Mul", "input": ["model_27/tf.math.add_195/Add", "model_27/tf.math.sigmoid_138/Sigmoid"], "attr": {"T": {"type": "DT_FLOAT"}}}, {"name": "model_27/tf.concat_33/concat", "op": "ConcatV2", "input": ["model_27/tf.strided_slice_32/StridedSlice", "model_27/tf.strided_slice_33/StridedSlice", "model_27/tf.math.multiply_604/Mul", "model_27/tf.math.multiply_612/Mul", "model_27/tf.concat_33/concat/axis"], "attr": {"N": {"i": "4"}, "Tidx": {"type": "DT_INT32"}, "T": {"type": "DT_FLOAT"}}}, {"name": "model_27/tf.math.add_196/Add", "op": "_FusedConv2D", "input": ["model_27/tf.concat_33/concat", "model_27/tf.nn.convolution_147/convolution/filter", "model_27/tf.math.add_196/Add/y"], "device": "/device:CPU:0", "attr": {"num_host_args": {"i": "0"}, "data_format": {"s": "TkhXQw=="}, "filter_format": {"s": "SFdJTw=="}, "strides": {"list": {"i": ["1", "1", "1", "1"]}}, "num_args": {"i": "1"}, "fused_ops": {"list": {"s": ["Qmlhc0FkZA=="]}}, "TArgs": {"list": {"type": ["DT_FLOAT"]}}, "padding": {"s": "U0FNRQ=="}, "use_cudnn_on_gpu": {"b": true}, "leakyrelu_alpha": {"f": 0.2}, "epsilon": {"f": 0.0}, "T": {"type": "DT_FLOAT"}, "explicit_paddings": {"list": {}}, "dilations": {"list": {"i": ["1", "1", "1", "1"]}}}}, {"name": "model_27/tf.math.sigmoid_139/Sigmoid", "op": "Sigmoid", "input": ["model_27/tf.math.add_196/Add"], "attr": {"T": {"type": "DT_FLOAT"}}}, {"name": "model_27/tf.math.multiply_616/Mul", "op": "Mul", "input": ["model_27/tf.math.add_196/Add", "model_27/tf.math.sigmoid_139/Sigmoid"], "attr": {"T": {"type": "DT_FLOAT"}}}, {"name": "model_27/tf.compat.v1.pad_13/Pad", "op": "Pad", "input": ["model_27/tf.math.multiply_616/Mul", "model_27/tf.compat.v1.pad_13/Pad/paddings"], "attr": {"Tpaddings": {"type": "DT_INT32"}, "T": {"type": "DT_FLOAT"}}}, {"name": "model_27/tf.math.add_198/Add", "op": "_FusedConv2D", "input": ["model_27/tf.math.multiply_616/Mul", "model_27/tf.nn.convolution_149/convolution/filter", "model_27/tf.math.add_198/Add/y"], "device": "/device:CPU:0", "attr": {"num_host_args": {"i": "0"}, "data_format": {"s": "TkhXQw=="}, "filter_format": {"s": "SFdJTw=="}, "strides": {"list": {"i": ["1", "1", "1", "1"]}}, "num_args": {"i": "1"}, "fused_ops": {"list": {"s": ["Qmlhc0FkZA=="]}}, "TArgs": {"list": {"type": ["DT_FLOAT"]}}, "padding": {"s": "U0FNRQ=="}, "use_cudnn_on_gpu": {"b": true}, "leakyrelu_alpha": {"f": 0.2}, "epsilon": {"f": 0.0}, "T": {"type": "DT_FLOAT"}, "explicit_paddings": {"list": {}}, "dilations": {"list": {"i": ["1", "1", "1", "1"]}}}}, {"name": "model_27/tf.math.add_199/Add", "op": "_FusedConv2D", "input": ["model_27/tf.math.multiply_616/Mul", "model_27/tf.nn.convolution_150/convolution/filter", "model_27/tf.math.add_199/Add/y"], "device": "/device:CPU:0", "attr": {"num_host_args": {"i": "0"}, "data_format": {"s": "TkhXQw=="}, "filter_format": {"s": "SFdJTw=="}, "strides": {"list": {"i": ["1", "1", "1", "1"]}}, "num_args": {"i": "1"}, "fused_ops": {"list": {"s": ["Qmlhc0FkZA=="]}}, "TArgs": {"list": {"type": ["DT_FLOAT"]}}, "padding": {"s": "U0FNRQ=="}, "use_cudnn_on_gpu": {"b": true}, "leakyrelu_alpha": {"f": 0.2}, "epsilon": {"f": 0.0}, "T": {"type": "DT_FLOAT"}, "explicit_paddings": {"list": {}}, "dilations": {"list": {"i": ["1", "1", "1", "1"]}}}}, {"name": "model_27/tf.math.add_197/Add", "op": "_FusedConv2D", "input": ["model_27/tf.compat.v1.pad_13/Pad", "model_27/tf.nn.convolution_148/convolution/filter", "model_27/tf.math.add_197/Add/y"], "device": "/device:CPU:0", "attr": {"num_host_args": {"i": "0"}, "data_format": {"s": "TkhXQw=="}, "filter_format": {"s": "SFdJTw=="}, "fused_ops": {"list": {"s": ["Qmlhc0FkZA=="]}}, "num_args": {"i": "1"}, "strides": {"list": {"i": ["1", "2", "2", "1"]}}, "TArgs": {"list": {"type": ["DT_FLOAT"]}}, "padding": {"s": "VkFMSUQ="}, "use_cudnn_on_gpu": {"b": true}, "leakyrelu_alpha": {"f": 0.2}, "epsilon": {"f": 0.0}, "T": {"type": "DT_FLOAT"}, "explicit_paddings": {"list": {}}, "dilations": {"list": {"i": ["1", "1", "1", "1"]}}}}, {"name": "model_27/tf.math.sigmoid_141/Sigmoid", "op": "Sigmoid", "input": ["model_27/tf.math.add_198/Add"], "attr": {"T": {"type": "DT_FLOAT"}}}, {"name": "model_27/tf.math.sigmoid_142/Sigmoid", "op": "Sigmoid", "input": ["model_27/tf.math.add_199/Add"], "attr": {"T": {"type": "DT_FLOAT"}}}, {"name": "model_27/tf.math.sigmoid_140/Sigmoid", "op": "Sigmoid", "input": ["model_27/tf.math.add_197/Add"], "attr": {"T": {"type": "DT_FLOAT"}}}, {"name": "model_27/tf.math.multiply_624/Mul", "op": "Mul", "input": ["model_27/tf.math.add_198/Add", "model_27/tf.math.sigmoid_141/Sigmoid"], "attr": {"T": {"type": "DT_FLOAT"}}}, {"name": "model_27/tf.math.multiply_628/Mul", "op": "Mul", "input": ["model_27/tf.math.add_199/Add", "model_27/tf.math.sigmoid_142/Sigmoid"], "attr": {"T": {"type": "DT_FLOAT"}}}, {"name": "model_27/tf.math.multiply_620/Mul", "op": "Mul", "input": ["model_27/tf.math.add_197/Add", "model_27/tf.math.sigmoid_140/Sigmoid"], "attr": {"T": {"type": "DT_FLOAT"}}}, {"name": "model_27/tf.math.add_200/Add", "op": "_FusedConv2D", "input": ["model_27/tf.math.multiply_624/Mul", "model_27/tf.nn.convolution_151/convolution/filter", "model_27/tf.math.add_200/Add/y"], "device": "/device:CPU:0", "attr": {"num_host_args": {"i": "0"}, "data_format": {"s": "TkhXQw=="}, "filter_format": {"s": "SFdJTw=="}, "strides": {"list": {"i": ["1", "1", "1", "1"]}}, "num_args": {"i": "1"}, "fused_ops": {"list": {"s": ["Qmlhc0FkZA=="]}}, "TArgs": {"list": {"type": ["DT_FLOAT"]}}, "padding": {"s": "U0FNRQ=="}, "use_cudnn_on_gpu": {"b": true}, "leakyrelu_alpha": {"f": 0.2}, "epsilon": {"f": 0.0}, "T": {"type": "DT_FLOAT"}, "explicit_paddings": {"list": {}}, "dilations": {"list": {"i": ["1", "1", "1", "1"]}}}}, {"name": "model_27/tf.math.add_201/Add", "op": "_FusedConv2D", "input": ["model_27/tf.math.multiply_628/Mul", "model_27/tf.nn.convolution_152/convolution/filter", "model_27/tf.math.add_201/Add/y"], "device": "/device:CPU:0", "attr": {"num_host_args": {"i": "0"}, "data_format": {"s": "TkhXQw=="}, "filter_format": {"s": "SFdJTw=="}, "strides": {"list": {"i": ["1", "1", "1", "1"]}}, "num_args": {"i": "1"}, "fused_ops": {"list": {"s": ["Qmlhc0FkZA=="]}}, "TArgs": {"list": {"type": ["DT_FLOAT"]}}, "padding": {"s": "U0FNRQ=="}, "use_cudnn_on_gpu": {"b": true}, "leakyrelu_alpha": {"f": 0.2}, "epsilon": {"f": 0.0}, "T": {"type": "DT_FLOAT"}, "explicit_paddings": {"list": {}}, "dilations": {"list": {"i": ["1", "1", "1", "1"]}}}}, {"name": "model_27/tf.concat_34/concat", "op": "ConcatV2", "input": ["model_27/tf.math.multiply_620/Mul", "model_27/tf.math.multiply_524/Mul", "model_27/tf.concat_34/concat/axis"], "attr": {"N": {"i": "2"}, "T": {"type": "DT_FLOAT"}, "Tidx": {"type": "DT_INT32"}}}, {"name": "model_27/tf.math.sigmoid_143/Sigmoid", "op": "Sigmoid", "input": ["model_27/tf.math.add_200/Add"], "attr": {"T": {"type": "DT_FLOAT"}}}, {"name": "model_27/tf.math.sigmoid_144/Sigmoid", "op": "Sigmoid", "input": ["model_27/tf.math.add_201/Add"], "attr": {"T": {"type": "DT_FLOAT"}}}, {"name": "model_27/tf.math.add_202/Add", "op": "_FusedConv2D", "input": ["model_27/tf.concat_34/concat", "model_27/tf.nn.convolution_153/convolution/filter", "model_27/tf.math.add_202/Add/y"], "device": "/device:CPU:0", "attr": {"num_host_args": {"i": "0"}, "data_format": {"s": "TkhXQw=="}, "filter_format": {"s": "SFdJTw=="}, "strides": {"list": {"i": ["1", "1", "1", "1"]}}, "num_args": {"i": "1"}, "fused_ops": {"list": {"s": ["Qmlhc0FkZA=="]}}, "TArgs": {"list": {"type": ["DT_FLOAT"]}}, "padding": {"s": "U0FNRQ=="}, "use_cudnn_on_gpu": {"b": true}, "leakyrelu_alpha": {"f": 0.2}, "epsilon": {"f": 0.0}, "T": {"type": "DT_FLOAT"}, "explicit_paddings": {"list": {}}, "dilations": {"list": {"i": ["1", "1", "1", "1"]}}}}, {"name": "model_27/tf.math.multiply_632/Mul", "op": "Mul", "input": ["model_27/tf.math.add_200/Add", "model_27/tf.math.sigmoid_143/Sigmoid"], "attr": {"T": {"type": "DT_FLOAT"}}}, {"name": "model_27/tf.math.multiply_636/Mul", "op": "Mul", "input": ["model_27/tf.math.add_201/Add", "model_27/tf.math.sigmoid_144/Sigmoid"], "attr": {"T": {"type": "DT_FLOAT"}}}, {"name": "model_27/tf.math.sigmoid_145/Sigmoid", "op": "Sigmoid", "input": ["model_27/tf.math.add_202/Add"], "attr": {"T": {"type": "DT_FLOAT"}}}, {"name": "model_27/tf.math.add_203/Add", "op": "_FusedConv2D", "input": ["model_27/tf.math.multiply_632/Mul", "model_27/tf.nn.convolution_154/convolution/filter", "model_27/tf.math.add_203/Add/y"], "device": "/device:CPU:0", "attr": {"num_host_args": {"i": "0"}, "data_format": {"s": "TkhXQw=="}, "filter_format": {"s": "SFdJTw=="}, "fused_ops": {"list": {"s": ["Qmlhc0FkZA=="]}}, "num_args": {"i": "1"}, "strides": {"list": {"i": ["1", "1", "1", "1"]}}, "TArgs": {"list": {"type": ["DT_FLOAT"]}}, "padding": {"s": "U0FNRQ=="}, "use_cudnn_on_gpu": {"b": true}, "leakyrelu_alpha": {"f": 0.2}, "epsilon": {"f": 0.0}, "T": {"type": "DT_FLOAT"}, "explicit_paddings": {"list": {}}, "dilations": {"list": {"i": ["1", "1", "1", "1"]}}}}, {"name": "model_27/tf.math.add_204/Add", "op": "_FusedConv2D", "input": ["model_27/tf.math.multiply_636/Mul", "model_27/tf.nn.convolution_155/convolution/filter", "model_27/tf.math.add_204/Add/y"], "device": "/device:CPU:0", "attr": {"num_host_args": {"i": "0"}, "data_format": {"s": "TkhXQw=="}, "filter_format": {"s": "SFdJTw=="}, "strides": {"list": {"i": ["1", "1", "1", "1"]}}, "num_args": {"i": "1"}, "fused_ops": {"list": {"s": ["Qmlhc0FkZA=="]}}, "TArgs": {"list": {"type": ["DT_FLOAT"]}}, "padding": {"s": "U0FNRQ=="}, "use_cudnn_on_gpu": {"b": true}, "leakyrelu_alpha": {"f": 0.2}, "epsilon": {"f": 0.0}, "T": {"type": "DT_FLOAT"}, "explicit_paddings": {"list": {}}, "dilations": {"list": {"i": ["1", "1", "1", "1"]}}}}, {"name": "model_27/tf.math.multiply_640/Mul", "op": "Mul", "input": ["model_27/tf.math.add_202/Add", "model_27/tf.math.sigmoid_145/Sigmoid"], "attr": {"T": {"type": "DT_FLOAT"}}}, {"name": "model_27/tf.concat_35/concat", "op": "ConcatV2", "input": ["model_27/tf.math.add_203/Add", "model_27/tf.math.add_204/Add", "model_27/tf.concat_35/concat/axis"], "attr": {"N": {"i": "2"}, "T": {"type": "DT_FLOAT"}, "Tidx": {"type": "DT_INT32"}}}, {"name": "model_27/tf.strided_slice_34/StridedSlice", "op": "StridedSlice", "input": ["model_27/tf.math.multiply_640/Mul", "model_27/tf.strided_slice_34/ones_like/tensor", "model_27/tf.strided_slice_34/StridedSlice/end", "model_27/tf.strided_slice_34/ones_like"], "attr": {"shrink_axis_mask": {"i": "0"}, "new_axis_mask": {"i": "0"}, "Index": {"type": "DT_INT64"}, "begin_mask": {"i": "15"}, "T": {"type": "DT_FLOAT"}, "end_mask": {"i": "7"}, "ellipsis_mask": {"i": "0"}}}, {"name": "model_27/tf.strided_slice_35/StridedSlice", "op": "StridedSlice", "input": ["model_27/tf.math.multiply_640/Mul", "model_27/tf.strided_slice_35/ones_like/tensor", "model_27/tf.strided_slice_35/StridedSlice/end", "model_27/tf.strided_slice_35/ones_like"], "attr": {"shrink_axis_mask": {"i": "0"}, "Index": {"type": "DT_INT64"}, "new_axis_mask": {"i": "0"}, "begin_mask": {"i": "7"}, "end_mask": {"i": "7"}, "T": {"type": "DT_FLOAT"}, "ellipsis_mask": {"i": "0"}}}, {"name": "model_27/tf.compat.v1.transpose_204/transpose", "op": "Transpose", "input": ["model_27/tf.concat_35/concat", "model_27/tf.compat.v1.transpose_204/transpose/perm"], "attr": {"Tperm": {"type": "DT_INT32"}, "T": {"type": "DT_FLOAT"}}}, {"name": "model_27/tf.math.add_205/Add", "op": "_FusedConv2D", "input": ["model_27/tf.strided_slice_35/StridedSlice", "model_27/tf.nn.convolution_156/convolution/filter", "model_27/tf.math.add_205/Add/y"], "device": "/device:CPU:0", "attr": {"num_host_args": {"i": "0"}, "data_format": {"s": "TkhXQw=="}, "filter_format": {"s": "SFdJTw=="}, "fused_ops": {"list": {"s": ["Qmlhc0FkZA=="]}}, "num_args": {"i": "1"}, "strides": {"list": {"i": ["1", "1", "1", "1"]}}, "TArgs": {"list": {"type": ["DT_FLOAT"]}}, "padding": {"s": "U0FNRQ=="}, "use_cudnn_on_gpu": {"b": true}, "leakyrelu_alpha": {"f": 0.2}, "epsilon": {"f": 0.0}, "T": {"type": "DT_FLOAT"}, "explicit_paddings": {"list": {}}, "dilations": {"list": {"i": ["1", "1", "1", "1"]}}}}, {"name": "model_27/tf.reshape_20/Reshape", "op": "Reshape", "input": ["model_27/tf.compat.v1.transpose_204/transpose", "model_27/tf.reshape_20/Reshape/shape"], "attr": {"T": {"type": "DT_FLOAT"}, "Tshape": {"type": "DT_INT32"}}}, {"name": "model_27/tf.math.sigmoid_146/Sigmoid", "op": "Sigmoid", "input": ["model_27/tf.math.add_205/Add"], "attr": {"T": {"type": "DT_FLOAT"}}}, {"name": "model_27/tf.math.multiply_644/Mul", "op": "Mul", "input": ["model_27/tf.math.add_205/Add", "model_27/tf.math.sigmoid_146/Sigmoid"], "attr": {"T": {"type": "DT_FLOAT"}}}, {"name": "model_27/tf.math.add_206/Add", "op": "_FusedConv2D", "input": ["model_27/tf.math.multiply_644/Mul", "model_27/tf.nn.convolution_157/convolution/filter", "model_27/tf.math.add_206/Add/y"], "device": "/device:CPU:0", "attr": {"num_host_args": {"i": "0"}, "data_format": {"s": "TkhXQw=="}, "filter_format": {"s": "SFdJTw=="}, "strides": {"list": {"i": ["1", "1", "1", "1"]}}, "num_args": {"i": "1"}, "fused_ops": {"list": {"s": ["Qmlhc0FkZA=="]}}, "TArgs": {"list": {"type": ["DT_FLOAT"]}}, "padding": {"s": "U0FNRQ=="}, "use_cudnn_on_gpu": {"b": true}, "leakyrelu_alpha": {"f": 0.2}, "epsilon": {"f": 0.0}, "T": {"type": "DT_FLOAT"}, "explicit_paddings": {"list": {}}, "dilations": {"list": {"i": ["1", "1", "1", "1"]}}}}, {"name": "model_27/tf.math.sigmoid_147/Sigmoid", "op": "Sigmoid", "input": ["model_27/tf.math.add_206/Add"], "attr": {"T": {"type": "DT_FLOAT"}}}, {"name": "model_27/tf.math.multiply_648/Mul", "op": "Mul", "input": ["model_27/tf.math.add_206/Add", "model_27/tf.math.sigmoid_147/Sigmoid"], "attr": {"T": {"type": "DT_FLOAT"}}}, {"name": "model_27/tf.math.add_207/Add", "op": "_FusedConv2D", "input": ["model_27/tf.math.multiply_648/Mul", "model_27/tf.nn.convolution_158/convolution/filter", "model_27/tf.math.add_207/Add/y"], "device": "/device:CPU:0", "attr": {"num_host_args": {"i": "0"}, "data_format": {"s": "TkhXQw=="}, "filter_format": {"s": "SFdJTw=="}, "fused_ops": {"list": {"s": ["Qmlhc0FkZA=="]}}, "num_args": {"i": "1"}, "strides": {"list": {"i": ["1", "1", "1", "1"]}}, "TArgs": {"list": {"type": ["DT_FLOAT"]}}, "padding": {"s": "U0FNRQ=="}, "use_cudnn_on_gpu": {"b": true}, "leakyrelu_alpha": {"f": 0.2}, "epsilon": {"f": 0.0}, "T": {"type": "DT_FLOAT"}, "explicit_paddings": {"list": {}}, "dilations": {"list": {"i": ["1", "1", "1", "1"]}}}}, {"name": "model_27/tf.math.sigmoid_148/Sigmoid", "op": "Sigmoid", "input": ["model_27/tf.math.add_207/Add"], "attr": {"T": {"type": "DT_FLOAT"}}}, {"name": "model_27/tf.math.multiply_652/Mul", "op": "Mul", "input": ["model_27/tf.math.add_207/Add", "model_27/tf.math.sigmoid_148/Sigmoid"], "attr": {"T": {"type": "DT_FLOAT"}}}, {"name": "model_27/tf.math.add_208/Add", "op": "_FusedConv2D", "input": ["model_27/tf.math.multiply_652/Mul", "model_27/tf.nn.convolution_159/convolution/filter", "model_27/tf.math.add_208/Add/y"], "device": "/device:CPU:0", "attr": {"num_host_args": {"i": "0"}, "data_format": {"s": "TkhXQw=="}, "filter_format": {"s": "SFdJTw=="}, "fused_ops": {"list": {"s": ["Qmlhc0FkZA=="]}}, "num_args": {"i": "1"}, "strides": {"list": {"i": ["1", "1", "1", "1"]}}, "TArgs": {"list": {"type": ["DT_FLOAT"]}}, "padding": {"s": "U0FNRQ=="}, "use_cudnn_on_gpu": {"b": true}, "leakyrelu_alpha": {"f": 0.2}, "epsilon": {"f": 0.0}, "T": {"type": "DT_FLOAT"}, "explicit_paddings": {"list": {}}, "dilations": {"list": {"i": ["1", "1", "1", "1"]}}}}, {"name": "model_27/tf.math.sigmoid_149/Sigmoid", "op": "Sigmoid", "input": ["model_27/tf.math.add_208/Add"], "attr": {"T": {"type": "DT_FLOAT"}}}, {"name": "model_27/tf.math.multiply_656/Mul", "op": "Mul", "input": ["model_27/tf.math.add_208/Add", "model_27/tf.math.sigmoid_149/Sigmoid"], "attr": {"T": {"type": "DT_FLOAT"}}}, {"name": "model_27/tf.concat_36/concat", "op": "ConcatV2", "input": ["model_27/tf.strided_slice_34/StridedSlice", "model_27/tf.strided_slice_35/StridedSlice", "model_27/tf.math.multiply_648/Mul", "model_27/tf.math.multiply_656/Mul", "model_27/tf.concat_36/concat/axis"], "attr": {"N": {"i": "4"}, "Tidx": {"type": "DT_INT32"}, "T": {"type": "DT_FLOAT"}}}, {"name": "model_27/tf.math.add_209/Add", "op": "_FusedConv2D", "input": ["model_27/tf.concat_36/concat", "model_27/tf.nn.convolution_160/convolution/filter", "model_27/tf.math.add_209/Add/y"], "device": "/device:CPU:0", "attr": {"num_host_args": {"i": "0"}, "data_format": {"s": "TkhXQw=="}, "filter_format": {"s": "SFdJTw=="}, "strides": {"list": {"i": ["1", "1", "1", "1"]}}, "num_args": {"i": "1"}, "fused_ops": {"list": {"s": ["Qmlhc0FkZA=="]}}, "TArgs": {"list": {"type": ["DT_FLOAT"]}}, "padding": {"s": "U0FNRQ=="}, "use_cudnn_on_gpu": {"b": true}, "leakyrelu_alpha": {"f": 0.2}, "epsilon": {"f": 0.0}, "T": {"type": "DT_FLOAT"}, "explicit_paddings": {"list": {}}, "dilations": {"list": {"i": ["1", "1", "1", "1"]}}}}, {"name": "model_27/tf.math.sigmoid_150/Sigmoid", "op": "Sigmoid", "input": ["model_27/tf.math.add_209/Add"], "attr": {"T": {"type": "DT_FLOAT"}}}, {"name": "model_27/tf.math.multiply_660/Mul", "op": "Mul", "input": ["model_27/tf.math.add_209/Add", "model_27/tf.math.sigmoid_150/Sigmoid"], "attr": {"T": {"type": "DT_FLOAT"}}}, {"name": "model_27/tf.math.add_210/Add", "op": "_FusedConv2D", "input": ["model_27/tf.math.multiply_660/Mul", "model_27/tf.nn.convolution_161/convolution/filter", "model_27/tf.math.add_210/Add/y"], "device": "/device:CPU:0", "attr": {"num_host_args": {"i": "0"}, "data_format": {"s": "TkhXQw=="}, "filter_format": {"s": "SFdJTw=="}, "strides": {"list": {"i": ["1", "1", "1", "1"]}}, "num_args": {"i": "1"}, "fused_ops": {"list": {"s": ["Qmlhc0FkZA=="]}}, "TArgs": {"list": {"type": ["DT_FLOAT"]}}, "padding": {"s": "U0FNRQ=="}, "use_cudnn_on_gpu": {"b": true}, "leakyrelu_alpha": {"f": 0.2}, "epsilon": {"f": 0.0}, "T": {"type": "DT_FLOAT"}, "explicit_paddings": {"list": {}}, "dilations": {"list": {"i": ["1", "1", "1", "1"]}}}}, {"name": "model_27/tf.math.add_211/Add", "op": "_FusedConv2D", "input": ["model_27/tf.math.multiply_660/Mul", "model_27/tf.nn.convolution_162/convolution/filter", "model_27/tf.math.add_211/Add/y"], "device": "/device:CPU:0", "attr": {"num_host_args": {"i": "0"}, "data_format": {"s": "TkhXQw=="}, "filter_format": {"s": "SFdJTw=="}, "strides": {"list": {"i": ["1", "1", "1", "1"]}}, "num_args": {"i": "1"}, "fused_ops": {"list": {"s": ["Qmlhc0FkZA=="]}}, "TArgs": {"list": {"type": ["DT_FLOAT"]}}, "padding": {"s": "U0FNRQ=="}, "use_cudnn_on_gpu": {"b": true}, "leakyrelu_alpha": {"f": 0.2}, "epsilon": {"f": 0.0}, "T": {"type": "DT_FLOAT"}, "explicit_paddings": {"list": {}}, "dilations": {"list": {"i": ["1", "1", "1", "1"]}}}}, {"name": "model_27/tf.math.sigmoid_151/Sigmoid", "op": "Sigmoid", "input": ["model_27/tf.math.add_210/Add"], "attr": {"T": {"type": "DT_FLOAT"}}}, {"name": "model_27/tf.math.sigmoid_152/Sigmoid", "op": "Sigmoid", "input": ["model_27/tf.math.add_211/Add"], "attr": {"T": {"type": "DT_FLOAT"}}}, {"name": "model_27/tf.math.multiply_664/Mul", "op": "Mul", "input": ["model_27/tf.math.add_210/Add", "model_27/tf.math.sigmoid_151/Sigmoid"], "attr": {"T": {"type": "DT_FLOAT"}}}, {"name": "model_27/tf.math.multiply_668/Mul", "op": "Mul", "input": ["model_27/tf.math.add_211/Add", "model_27/tf.math.sigmoid_152/Sigmoid"], "attr": {"T": {"type": "DT_FLOAT"}}}, {"name": "model_27/tf.math.add_212/Add", "op": "_FusedConv2D", "input": ["model_27/tf.math.multiply_664/Mul", "model_27/tf.nn.convolution_163/convolution/filter", "model_27/tf.math.add_212/Add/y"], "device": "/device:CPU:0", "attr": {"num_host_args": {"i": "0"}, "data_format": {"s": "TkhXQw=="}, "filter_format": {"s": "SFdJTw=="}, "fused_ops": {"list": {"s": ["Qmlhc0FkZA=="]}}, "num_args": {"i": "1"}, "strides": {"list": {"i": ["1", "1", "1", "1"]}}, "TArgs": {"list": {"type": ["DT_FLOAT"]}}, "padding": {"s": "U0FNRQ=="}, "use_cudnn_on_gpu": {"b": true}, "leakyrelu_alpha": {"f": 0.2}, "epsilon": {"f": 0.0}, "T": {"type": "DT_FLOAT"}, "explicit_paddings": {"list": {}}, "dilations": {"list": {"i": ["1", "1", "1", "1"]}}}}, {"name": "model_27/tf.math.add_213/Add", "op": "_FusedConv2D", "input": ["model_27/tf.math.multiply_668/Mul", "model_27/tf.nn.convolution_164/convolution/filter", "model_27/tf.math.add_213/Add/y"], "device": "/device:CPU:0", "attr": {"num_host_args": {"i": "0"}, "data_format": {"s": "TkhXQw=="}, "filter_format": {"s": "SFdJTw=="}, "strides": {"list": {"i": ["1", "1", "1", "1"]}}, "num_args": {"i": "1"}, "fused_ops": {"list": {"s": ["Qmlhc0FkZA=="]}}, "TArgs": {"list": {"type": ["DT_FLOAT"]}}, "padding": {"s": "U0FNRQ=="}, "use_cudnn_on_gpu": {"b": true}, "leakyrelu_alpha": {"f": 0.2}, "epsilon": {"f": 0.0}, "T": {"type": "DT_FLOAT"}, "explicit_paddings": {"list": {}}, "dilations": {"list": {"i": ["1", "1", "1", "1"]}}}}, {"name": "model_27/tf.math.sigmoid_153/Sigmoid", "op": "Sigmoid", "input": ["model_27/tf.math.add_212/Add"], "attr": {"T": {"type": "DT_FLOAT"}}}, {"name": "model_27/tf.math.sigmoid_154/Sigmoid", "op": "Sigmoid", "input": ["model_27/tf.math.add_213/Add"], "attr": {"T": {"type": "DT_FLOAT"}}}, {"name": "model_27/tf.math.multiply_672/Mul", "op": "Mul", "input": ["model_27/tf.math.add_212/Add", "model_27/tf.math.sigmoid_153/Sigmoid"], "attr": {"T": {"type": "DT_FLOAT"}}}, {"name": "model_27/tf.math.multiply_676/Mul", "op": "Mul", "input": ["model_27/tf.math.add_213/Add", "model_27/tf.math.sigmoid_154/Sigmoid"], "attr": {"T": {"type": "DT_FLOAT"}}}, {"name": "model_27/tf.math.add_214/Add", "op": "_FusedConv2D", "input": ["model_27/tf.math.multiply_672/Mul", "model_27/tf.nn.convolution_165/convolution/filter", "model_27/tf.math.add_214/Add/y"], "device": "/device:CPU:0", "attr": {"num_host_args": {"i": "0"}, "data_format": {"s": "TkhXQw=="}, "filter_format": {"s": "SFdJTw=="}, "fused_ops": {"list": {"s": ["Qmlhc0FkZA=="]}}, "num_args": {"i": "1"}, "strides": {"list": {"i": ["1", "1", "1", "1"]}}, "TArgs": {"list": {"type": ["DT_FLOAT"]}}, "padding": {"s": "U0FNRQ=="}, "use_cudnn_on_gpu": {"b": true}, "leakyrelu_alpha": {"f": 0.2}, "epsilon": {"f": 0.0}, "T": {"type": "DT_FLOAT"}, "explicit_paddings": {"list": {}}, "dilations": {"list": {"i": ["1", "1", "1", "1"]}}}}, {"name": "model_27/tf.math.add_215/Add", "op": "_FusedConv2D", "input": ["model_27/tf.math.multiply_676/Mul", "model_27/tf.nn.convolution_166/convolution/filter", "model_27/tf.math.add_215/Add/y"], "device": "/device:CPU:0", "attr": {"num_host_args": {"i": "0"}, "data_format": {"s": "TkhXQw=="}, "filter_format": {"s": "SFdJTw=="}, "fused_ops": {"list": {"s": ["Qmlhc0FkZA=="]}}, "num_args": {"i": "1"}, "strides": {"list": {"i": ["1", "1", "1", "1"]}}, "TArgs": {"list": {"type": ["DT_FLOAT"]}}, "padding": {"s": "U0FNRQ=="}, "use_cudnn_on_gpu": {"b": true}, "leakyrelu_alpha": {"f": 0.2}, "epsilon": {"f": 0.0}, "T": {"type": "DT_FLOAT"}, "explicit_paddings": {"list": {}}, "dilations": {"list": {"i": ["1", "1", "1", "1"]}}}}, {"name": "model_27/tf.concat_37/concat", "op": "ConcatV2", "input": ["model_27/tf.math.add_214/Add", "model_27/tf.math.add_215/Add", "model_27/tf.concat_37/concat/axis"], "attr": {"N": {"i": "2"}, "Tidx": {"type": "DT_INT32"}, "T": {"type": "DT_FLOAT"}}}, {"name": "model_27/tf.compat.v1.transpose_218/transpose", "op": "Transpose", "input": ["model_27/tf.concat_37/concat", "model_27/tf.compat.v1.transpose_218/transpose/perm"], "attr": {"Tperm": {"type": "DT_INT32"}, "T": {"type": "DT_FLOAT"}}}, {"name": "model_27/tf.reshape_23/Reshape", "op": "Reshape", "input": ["model_27/tf.compat.v1.transpose_218/transpose", "model_27/tf.reshape_23/Reshape/shape"], "attr": {"T": {"type": "DT_FLOAT"}, "Tshape": {"type": "DT_INT32"}}}, {"name": "model_27/tf.concat_38/concat", "op": "ConcatV2", "input": ["model_27/tf.reshape_17/Reshape", "model_27/tf.reshape_20/Reshape", "model_27/tf.reshape_23/Reshape", "model_27/tf.concat_38/concat/axis"], "attr": {"N": {"i": "3"}, "Tidx": {"type": "DT_INT32"}, "T": {"type": "DT_FLOAT"}}}, {"name": "model_27/tf.strided_slice_37/StridedSlice", "op": "StridedSlice", "input": ["model_27/tf.concat_38/concat", "model_27/tf.strided_slice_37/StridedSlice/begin", "model_27/tf.strided_slice_37/StridedSlice/end", "model_27/tf.strided_slice_37/ones_like"], "attr": {"shrink_axis_mask": {"i": "0"}, "new_axis_mask": {"i": "0"}, "Index": {"type": "DT_INT32"}, "begin_mask": {"i": "5"}, "T": {"type": "DT_FLOAT"}, "end_mask": {"i": "5"}, "ellipsis_mask": {"i": "0"}}}, {"name": "model_27/tf.strided_slice_36/StridedSlice", "op": "StridedSlice", "input": ["model_27/tf.concat_38/concat", "model_27/tf.strided_slice_36/StridedSlice/begin", "model_27/tf.strided_slice_36/StridedSlice/end", "model_27/tf.strided_slice_36/ones_like"], "attr": {"shrink_axis_mask": {"i": "0"}, "Index": {"type": "DT_INT32"}, "new_axis_mask": {"i": "0"}, "begin_mask": {"i": "5"}, "end_mask": {"i": "5"}, "T": {"type": "DT_FLOAT"}, "ellipsis_mask": {"i": "0"}}}, {"name": "model_27/tf.math.sigmoid_155/Sigmoid", "op": "Sigmoid", "input": ["model_27/tf.strided_slice_37/StridedSlice"], "attr": {"T": {"type": "DT_FLOAT"}}}, {"name": "model_27/tf.reshape_26/Reshape", "op": "Reshape", "input": ["model_27/tf.strided_slice_36/StridedSlice", "model_27/tf.reshape_26/Reshape/shape"], "attr": {"T": {"type": "DT_FLOAT"}, "Tshape": {"type": "DT_INT32"}}}, {"name": "model_27/tf.compat.v1.transpose_225/transpose", "op": "Transpose", "input": ["model_27/tf.reshape_26/Reshape", "model_27/tf.compat.v1.transpose_225/transpose/perm"], "attr": {"Tperm": {"type": "DT_INT32"}, "T": {"type": "DT_FLOAT"}}}, {"name": "model_27/tf.compat.v1.transpose_226/transpose", "op": "Transpose", "input": ["model_27/tf.compat.v1.transpose_225/transpose", "model_27/tf.compat.v1.transpose_226/transpose/perm"], "attr": {"Tperm": {"type": "DT_INT32"}, "T": {"type": "DT_FLOAT"}}}, {"name": "model_27/tf.nn.softmax_1//model.22/dfl/Softmax", "op": "Softmax", "input": ["model_27/tf.compat.v1.transpose_226/transpose"], "attr": {"T": {"type": "DT_FLOAT"}}}, {"name": "model_27/tf.nn.convolution_167/convolution", "op": "Conv2D", "input": ["model_27/tf.nn.softmax_1//model.22/dfl/Softmax", "model_27/tf.nn.convolution_167/convolution/filter"], "device": "/device:CPU:0", "attr": {"padding": {"s": "U0FNRQ=="}, "data_format": {"s": "TkhXQw=="}, "strides": {"list": {"i": ["1", "1", "1", "1"]}}, "use_cudnn_on_gpu": {"b": true}, "T": {"type": "DT_FLOAT"}, "explicit_paddings": {"list": {}}, "dilations": {"list": {"i": ["1", "1", "1", "1"]}}}}, {"name": "model_27/tf.compat.v1.transpose_231/transpose", "op": "Transpose", "input": ["model_27/tf.nn.convolution_167/convolution", "model_27/tf.compat.v1.transpose_231/transpose/perm"], "attr": {"Tperm": {"type": "DT_INT32"}, "T": {"type": "DT_FLOAT"}}}, {"name": "model_27/tf.reshape_29/Reshape", "op": "Reshape", "input": ["model_27/tf.compat.v1.transpose_231/transpose", "model_27/tf.reshape_29/Reshape/shape"], "attr": {"T": {"type": "DT_FLOAT"}, "Tshape": {"type": "DT_INT32"}}}, {"name": "model_27/tf.strided_slice_39/StridedSlice", "op": "StridedSlice", "input": ["model_27/tf.reshape_29/Reshape", "model_27/tf.strided_slice_39/ones_like/tensor", "model_27/tf.strided_slice_39/StridedSlice/end", "model_27/tf.strided_slice_39/ones_like"], "attr": {"shrink_axis_mask": {"i": "0"}, "new_axis_mask": {"i": "0"}, "Index": {"type": "DT_INT64"}, "begin_mask": {"i": "5"}, "T": {"type": "DT_FLOAT"}, "end_mask": {"i": "5"}, "ellipsis_mask": {"i": "0"}}}, {"name": "model_27/tf.strided_slice_38/StridedSlice", "op": "StridedSlice", "input": ["model_27/tf.reshape_29/Reshape", "model_27/tf.strided_slice_38/ones_like/tensor", "model_27/tf.strided_slice_38/StridedSlice/end", "model_27/tf.strided_slice_38/ones_like"], "attr": {"shrink_axis_mask": {"i": "0"}, "Index": {"type": "DT_INT64"}, "new_axis_mask": {"i": "0"}, "begin_mask": {"i": "7"}, "end_mask": {"i": "5"}, "T": {"type": "DT_FLOAT"}, "ellipsis_mask": {"i": "0"}}}, {"name": "model_27/tf.math.add_216/Add", "op": "AddV2", "input": ["model_27/tf.strided_slice_39/StridedSlice", "model_27/tf.math.add_216/Add/y"], "attr": {"T": {"type": "DT_FLOAT"}}}, {"name": "model_27/tf.math.subtract_2/Sub", "op": "Sub", "input": ["model_27/37820", "model_27/tf.strided_slice_38/StridedSlice"], "attr": {"T": {"type": "DT_FLOAT"}}}, {"name": "model_27/tf.math.add_217/Add", "op": "AddV2", "input": ["model_27/tf.math.subtract_2/Sub", "model_27/tf.math.add_216/Add"], "attr": {"T": {"type": "DT_FLOAT"}}}, {"name": "model_27/tf.math.subtract_3/Sub", "op": "Sub", "input": ["model_27/tf.math.add_216/Add", "model_27/tf.math.subtract_2/Sub"], "attr": {"T": {"type": "DT_FLOAT"}}}, {"name": "model_27/tf.math.divide_1/truediv", "op": "Mul", "input": ["model_27/tf.math.add_217/Add", "ConstantFolding/model_27/tf.math.divide_1/truediv_recip"], "attr": {"T": {"type": "DT_FLOAT"}}}, {"name": "model_27/tf.concat_42/concat", "op": "ConcatV2", "input": ["model_27/tf.math.divide_1/truediv", "model_27/tf.math.subtract_3/Sub", "model_27/tf.concat_42/concat/axis"], "attr": {"N": {"i": "2"}, "T": {"type": "DT_FLOAT"}, "Tidx": {"type": "DT_INT32"}}}, {"name": "model_27/tf.math.multiply_689/Mul", "op": "Mul", "input": ["model_27/tf.concat_42/concat", "model_27/tf.math.multiply_689/Mul/y"], "attr": {"T": {"type": "DT_FLOAT"}}}, {"name": "model_27/output0/concat", "op": "ConcatV2", "input": ["model_27/tf.math.multiply_689/Mul", "model_27/tf.math.sigmoid_155/Sigmoid", "model_27/output0/concat/axis"], "attr": {"N": {"i": "2"}, "T": {"type": "DT_FLOAT"}, "Tidx": {"type": "DT_INT32"}}}, {"name": "Identity", "op": "Identity", "input": ["model_27/output0/concat"], "attr": {"T": {"type": "DT_FLOAT"}}}], "library": {}, "versions": {"producer": 1882}}, "weightsManifest": [{"paths": ["group1-shard1of25.bin", "group1-shard2of25.bin", "group1-shard3of25.bin", "group1-shard4of25.bin", "group1-shard5of25.bin", "group1-shard6of25.bin", "group1-shard7of25.bin", "group1-shard8of25.bin", "group1-shard9of25.bin", "group1-shard10of25.bin", "group1-shard11of25.bin", "group1-shard12of25.bin", "group1-shard13of25.bin", "group1-shard14of25.bin", "group1-shard15of25.bin", "group1-shard16of25.bin", "group1-shard17of25.bin", "group1-shard18of25.bin", "group1-shard19of25.bin", "group1-shard20of25.bin", "group1-shard21of25.bin", "group1-shard22of25.bin", "group1-shard23of25.bin", "group1-shard24of25.bin", "group1-shard25of25.bin"], "weights": [{"name": "ConstantFolding/model_27/tf.math.divide_1/truediv_recip", "shape": [], "dtype": "float32"}, {"name": "model_27/tf.strided_slice_39/ones_like/tensor", "shape": [3], "dtype": "int32"}, {"name": "model_27/tf.strided_slice_39/StridedSlice/end", "shape": [3], "dtype": "int32"}, {"name": "model_27/tf.strided_slice_39/ones_like", "shape": [3], "dtype": "int32"}, {"name": "model_27/tf.math.add_216/Add/y", "shape": [1, 2, 8400], "dtype": "float32"}, {"name": "model_27/37820", "shape": [1, 2, 8400], "dtype": "float32"}, {"name": "model_27/tf.strided_slice_36/StridedSlice/begin", "shape": [3], "dtype": "int32"}, {"name": "model_27/tf.strided_slice_36/StridedSlice/end", "shape": [3], "dtype": "int32"}, {"name": "model_27/tf.strided_slice_36/ones_like", "shape": [3], "dtype": "int32"}, {"name": "model_27/tf.reshape_26/Reshape/shape", "shape": [4], "dtype": "int32"}, {"name": "model_27/tf.compat.v1.transpose_225/transpose/perm", "shape": [4], "dtype": "int32"}, {"name": "model_27/tf.compat.v1.transpose_226/transpose/perm", "shape": [4], "dtype": "int32"}, {"name": "model_27/tf.nn.convolution_167/convolution/filter", "shape": [1, 1, 16, 1], "dtype": "float32"}, {"name": "model_27/tf.compat.v1.transpose_231/transpose/perm", "shape": [4], "dtype": "int32"}, {"name": "model_27/tf.reshape_29/Reshape/shape", "shape": [3], "dtype": "int32"}, {"name": "model_27/tf.strided_slice_38/ones_like/tensor", "shape": [3], "dtype": "int32"}, {"name": "model_27/tf.strided_slice_38/StridedSlice/end", "shape": [3], "dtype": "int32"}, {"name": "model_27/tf.strided_slice_38/ones_like", "shape": [3], "dtype": "int32"}, {"name": "model_27/tf.concat_42/concat/axis", "shape": [], "dtype": "int32"}, {"name": "model_27/tf.math.multiply_689/Mul/y", "shape": [1, 1, 8400], "dtype": "float32"}, {"name": "model_27/tf.nn.convolution_136/convolution/filter", "shape": [3, 3, 192, 64], "dtype": "float32"}, {"name": "model_27/tf.math.add_185/Add/y", "shape": [64], "dtype": "float32"}, {"name": "model_27/tf.nn.convolution_138/convolution/filter", "shape": [3, 3, 64, 64], "dtype": "float32"}, {"name": "model_27/tf.math.add_187/Add/y", "shape": [64], "dtype": "float32"}, {"name": "model_27/tf.nn.convolution_141/convolution/filter", "shape": [1, 1, 64, 64], "dtype": "float32"}, {"name": "model_27/tf.math.add_190/Add/y", "shape": [64], "dtype": "float32"}, {"name": "model_27/tf.nn.convolution_137/convolution/filter", "shape": [3, 3, 192, 192], "dtype": "float32"}, {"name": "model_27/tf.math.add_186/Add/y", "shape": [192], "dtype": "float32"}, {"name": "model_27/tf.nn.convolution_139/convolution/filter", "shape": [3, 3, 192, 192], "dtype": "float32"}, {"name": "model_27/tf.math.add_188/Add/y", "shape": [192], "dtype": "float32"}, {"name": "model_27/tf.nn.convolution_142/convolution/filter", "shape": [1, 1, 192, 10], "dtype": "float32"}, {"name": "model_27/tf.math.add_191/Add/y", "shape": [10], "dtype": "float32"}, {"name": "model_27/tf.concat_32/concat/axis", "shape": [], "dtype": "int32"}, {"name": "model_27/tf.compat.v1.transpose_188/transpose/perm", "shape": [4], "dtype": "int32"}, {"name": "model_27/tf.reshape_17/Reshape/shape", "shape": [3], "dtype": "int32"}, {"name": "model_27/tf.nn.convolution_149/convolution/filter", "shape": [3, 3, 384, 64], "dtype": "float32"}, {"name": "model_27/tf.math.add_198/Add/y", "shape": [64], "dtype": "float32"}, {"name": "model_27/tf.nn.convolution_151/convolution/filter", "shape": [3, 3, 64, 64], "dtype": "float32"}, {"name": "model_27/tf.math.add_200/Add/y", "shape": [64], "dtype": "float32"}, {"name": "model_27/tf.nn.convolution_154/convolution/filter", "shape": [1, 1, 64, 64], "dtype": "float32"}, {"name": "model_27/tf.math.add_203/Add/y", "shape": [64], "dtype": "float32"}, {"name": "model_27/tf.nn.convolution_150/convolution/filter", "shape": [3, 3, 384, 192], "dtype": "float32"}, {"name": "model_27/tf.math.add_199/Add/y", "shape": [192], "dtype": "float32"}, {"name": "model_27/tf.nn.convolution_152/convolution/filter", "shape": [3, 3, 192, 192], "dtype": "float32"}, {"name": "model_27/tf.math.add_201/Add/y", "shape": [192], "dtype": "float32"}, {"name": "model_27/tf.nn.convolution_155/convolution/filter", "shape": [1, 1, 192, 10], "dtype": "float32"}, {"name": "model_27/tf.math.add_204/Add/y", "shape": [10], "dtype": "float32"}, {"name": "model_27/tf.concat_35/concat/axis", "shape": [], "dtype": "int32"}, {"name": "model_27/tf.compat.v1.transpose_204/transpose/perm", "shape": [4], "dtype": "int32"}, {"name": "model_27/tf.reshape_20/Reshape/shape", "shape": [3], "dtype": "int32"}, {"name": "model_27/tf.nn.convolution_161/convolution/filter", "shape": [3, 3, 576, 64], "dtype": "float32"}, {"name": "model_27/tf.math.add_210/Add/y", "shape": [64], "dtype": "float32"}, {"name": "model_27/tf.nn.convolution_163/convolution/filter", "shape": [3, 3, 64, 64], "dtype": "float32"}, {"name": "model_27/tf.math.add_212/Add/y", "shape": [64], "dtype": "float32"}, {"name": "model_27/tf.nn.convolution_165/convolution/filter", "shape": [1, 1, 64, 64], "dtype": "float32"}, {"name": "model_27/tf.math.add_214/Add/y", "shape": [64], "dtype": "float32"}, {"name": "model_27/tf.strided_slice_34/ones_like/tensor", "shape": [4], "dtype": "int32"}, {"name": "model_27/tf.strided_slice_34/StridedSlice/end", "shape": [4], "dtype": "int32"}, {"name": "model_27/tf.strided_slice_34/ones_like", "shape": [4], "dtype": "int32"}, {"name": "model_27/tf.strided_slice_32/ones_like/tensor", "shape": [4], "dtype": "int32"}, {"name": "model_27/tf.strided_slice_32/StridedSlice/end", "shape": [4], "dtype": "int32"}, {"name": "model_27/tf.strided_slice_32/ones_like", "shape": [4], "dtype": "int32"}, {"name": "model_27/tf.strided_slice_30/ones_like/tensor", "shape": [4], "dtype": "int32"}, {"name": "model_27/tf.strided_slice_30/StridedSlice/end", "shape": [4], "dtype": "int32"}, {"name": "model_27/tf.strided_slice_30/ones_like", "shape": [4], "dtype": "int32"}, {"name": "model_27/tf.image.resize_3/resize/size", "shape": [2], "dtype": "int32"}, {"name": "model_27/tf.concat_29/concat/axis", "shape": [], "dtype": "int32"}, {"name": "model_27/tf.nn.convolution_129/convolution/filter", "shape": [1, 1, 576, 192], "dtype": "float32"}, {"name": "model_27/tf.math.add_178/Add/y", "shape": [192], "dtype": "float32"}, {"name": "model_27/tf.strided_slice_31/ones_like/tensor", "shape": [4], "dtype": "int32"}, {"name": "model_27/tf.strided_slice_31/StridedSlice/end", "shape": [4], "dtype": "int32"}, {"name": "model_27/tf.strided_slice_31/ones_like", "shape": [4], "dtype": "int32"}, {"name": "model_27/tf.nn.convolution_130/convolution/filter", "shape": [3, 3, 96, 96], "dtype": "float32"}, {"name": "model_27/tf.math.add_179/Add/y", "shape": [96], "dtype": "float32"}, {"name": "model_27/tf.nn.convolution_131/convolution/filter", "shape": [3, 3, 96, 96], "dtype": "float32"}, {"name": "model_27/tf.math.add_180/Add/y", "shape": [96], "dtype": "float32"}, {"name": "model_27/tf.nn.convolution_132/convolution/filter", "shape": [3, 3, 96, 96], "dtype": "float32"}, {"name": "model_27/tf.math.add_181/Add/y", "shape": [96], "dtype": "float32"}, {"name": "model_27/tf.nn.convolution_133/convolution/filter", "shape": [3, 3, 96, 96], "dtype": "float32"}, {"name": "model_27/tf.math.add_182/Add/y", "shape": [96], "dtype": "float32"}, {"name": "model_27/tf.concat_30/concat/axis", "shape": [], "dtype": "int32"}, {"name": "model_27/tf.nn.convolution_134/convolution/filter", "shape": [1, 1, 384, 192], "dtype": "float32"}, {"name": "model_27/tf.math.add_183/Add/y", "shape": [192], "dtype": "float32"}, {"name": "model_27/tf.compat.v1.pad_12/Pad/paddings", "shape": [4, 2], "dtype": "int32"}, {"name": "model_27/tf.nn.convolution_135/convolution/filter", "shape": [3, 3, 192, 192], "dtype": "float32"}, {"name": "model_27/tf.math.add_184/Add/y", "shape": [192], "dtype": "float32"}, {"name": "model_27/tf.strided_slice_28/ones_like/tensor", "shape": [4], "dtype": "int32"}, {"name": "model_27/tf.strided_slice_28/StridedSlice/end", "shape": [4], "dtype": "int32"}, {"name": "model_27/tf.strided_slice_28/ones_like", "shape": [4], "dtype": "int32"}, {"name": "model_27/tf.image.resize_2/resize/size", "shape": [2], "dtype": "int32"}, {"name": "model_27/tf.concat_27/concat/axis", "shape": [], "dtype": "int32"}, {"name": "model_27/tf.nn.convolution_123/convolution/filter", "shape": [1, 1, 960, 384], "dtype": "float32"}, {"name": "model_27/tf.math.add_172/Add/y", "shape": [384], "dtype": "float32"}, {"name": "model_27/tf.strided_slice_29/ones_like/tensor", "shape": [4], "dtype": "int32"}, {"name": "model_27/tf.strided_slice_29/StridedSlice/end", "shape": [4], "dtype": "int32"}, {"name": "model_27/tf.strided_slice_29/ones_like", "shape": [4], "dtype": "int32"}, {"name": "model_27/tf.nn.convolution_124/convolution/filter", "shape": [3, 3, 192, 192], "dtype": "float32"}, {"name": "model_27/tf.math.add_173/Add/y", "shape": [192], "dtype": "float32"}, {"name": "model_27/tf.nn.convolution_125/convolution/filter", "shape": [3, 3, 192, 192], "dtype": "float32"}, {"name": "model_27/tf.math.add_174/Add/y", "shape": [192], "dtype": "float32"}, {"name": "model_27/tf.nn.convolution_126/convolution/filter", "shape": [3, 3, 192, 192], "dtype": "float32"}, {"name": "model_27/tf.math.add_175/Add/y", "shape": [192], "dtype": "float32"}, {"name": "model_27/tf.nn.convolution_127/convolution/filter", "shape": [3, 3, 192, 192], "dtype": "float32"}, {"name": "model_27/tf.math.add_176/Add/y", "shape": [192], "dtype": "float32"}, {"name": "model_27/tf.concat_28/concat/axis", "shape": [], "dtype": "int32"}, {"name": "model_27/tf.nn.convolution_128/convolution/filter", "shape": [1, 1, 768, 384], "dtype": "float32"}, {"name": "model_27/tf.math.add_177/Add/y", "shape": [384], "dtype": "float32"}, {"name": "model_27/tf.concat_31/concat/axis", "shape": [], "dtype": "int32"}, {"name": "model_27/tf.nn.convolution_140/convolution/filter", "shape": [1, 1, 576, 384], "dtype": "float32"}, {"name": "model_27/tf.math.add_189/Add/y", "shape": [384], "dtype": "float32"}, {"name": "model_27/tf.strided_slice_33/ones_like/tensor", "shape": [4], "dtype": "int32"}, {"name": "model_27/tf.strided_slice_33/StridedSlice/end", "shape": [4], "dtype": "int32"}, {"name": "model_27/tf.strided_slice_33/ones_like", "shape": [4], "dtype": "int32"}, {"name": "model_27/tf.nn.convolution_143/convolution/filter", "shape": [3, 3, 192, 192], "dtype": "float32"}, {"name": "model_27/tf.math.add_192/Add/y", "shape": [192], "dtype": "float32"}, {"name": "model_27/tf.nn.convolution_144/convolution/filter", "shape": [3, 3, 192, 192], "dtype": "float32"}, {"name": "model_27/tf.math.add_193/Add/y", "shape": [192], "dtype": "float32"}, {"name": "model_27/tf.nn.convolution_145/convolution/filter", "shape": [3, 3, 192, 192], "dtype": "float32"}, {"name": "model_27/tf.math.add_194/Add/y", "shape": [192], "dtype": "float32"}, {"name": "model_27/tf.nn.convolution_146/convolution/filter", "shape": [3, 3, 192, 192], "dtype": "float32"}, {"name": "model_27/tf.math.add_195/Add/y", "shape": [192], "dtype": "float32"}, {"name": "model_27/tf.concat_33/concat/axis", "shape": [], "dtype": "int32"}, {"name": "model_27/tf.nn.convolution_147/convolution/filter", "shape": [1, 1, 768, 384], "dtype": "float32"}, {"name": "model_27/tf.math.add_196/Add/y", "shape": [384], "dtype": "float32"}, {"name": "model_27/tf.compat.v1.pad_13/Pad/paddings", "shape": [4, 2], "dtype": "int32"}, {"name": "model_27/tf.nn.convolution_148/convolution/filter", "shape": [3, 3, 384, 384], "dtype": "float32"}, {"name": "model_27/tf.math.add_197/Add/y", "shape": [384], "dtype": "float32"}, {"name": "model_27/tf.strided_slice_26/ones_like/tensor", "shape": [4], "dtype": "int32"}, {"name": "model_27/tf.strided_slice_26/StridedSlice/end", "shape": [4], "dtype": "int32"}, {"name": "model_27/tf.strided_slice_26/ones_like", "shape": [4], "dtype": "int32"}, {"name": "model_27/tf.strided_slice_24/ones_like/tensor", "shape": [4], "dtype": "int32"}, {"name": "model_27/tf.strided_slice_24/StridedSlice/end", "shape": [4], "dtype": "int32"}, {"name": "model_27/tf.strided_slice_24/ones_like", "shape": [4], "dtype": "int32"}, {"name": "model_27/tf.strided_slice_22/ones_like/tensor", "shape": [4], "dtype": "int32"}, {"name": "model_27/tf.strided_slice_22/StridedSlice/end", "shape": [4], "dtype": "int32"}, {"name": "model_27/tf.strided_slice_22/ones_like", "shape": [4], "dtype": "int32"}, {"name": "model_27/tf.strided_slice_20/ones_like/tensor", "shape": [4], "dtype": "int32"}, {"name": "model_27/tf.strided_slice_20/StridedSlice/end", "shape": [4], "dtype": "int32"}, {"name": "model_27/tf.strided_slice_20/ones_like", "shape": [4], "dtype": "int32"}, {"name": "model_27/tf.compat.v1.pad_7/Pad/paddings", "shape": [4, 2], "dtype": "int32"}, {"name": "model_27/tf.nn.convolution_84/convolution/filter", "shape": [3, 3, 3, 48], "dtype": "float32"}, {"name": "model_27/tf.math.add_109/Add/y", "shape": [48], "dtype": "float32"}, {"name": "model_27/tf.compat.v1.pad_8/Pad/paddings", "shape": [4, 2], "dtype": "int32"}, {"name": "model_27/tf.nn.convolution_85/convolution/filter", "shape": [3, 3, 48, 96], "dtype": "float32"}, {"name": "model_27/tf.math.add_110/Add/y", "shape": [96], "dtype": "float32"}, {"name": "model_27/tf.nn.convolution_86/convolution/filter", "shape": [1, 1, 96, 96], "dtype": "float32"}, {"name": "model_27/tf.math.add_111/Add/y", "shape": [96], "dtype": "float32"}, {"name": "model_27/tf.strided_slice_21/ones_like/tensor", "shape": [4], "dtype": "int32"}, {"name": "model_27/tf.strided_slice_21/StridedSlice/end", "shape": [4], "dtype": "int32"}, {"name": "model_27/tf.strided_slice_21/ones_like", "shape": [4], "dtype": "int32"}, {"name": "model_27/tf.nn.convolution_87/convolution/filter", "shape": [3, 3, 48, 48], "dtype": "float32"}, {"name": "model_27/tf.math.add_112/Add/y", "shape": [48], "dtype": "float32"}, {"name": "model_27/tf.nn.convolution_88/convolution/filter", "shape": [3, 3, 48, 48], "dtype": "float32"}, {"name": "model_27/tf.math.add_113/Add/y", "shape": [48], "dtype": "float32"}, {"name": "model_27/tf.nn.convolution_89/convolution/filter", "shape": [3, 3, 48, 48], "dtype": "float32"}, {"name": "model_27/tf.math.add_116/Add/y", "shape": [48], "dtype": "float32"}, {"name": "model_27/tf.nn.convolution_90/convolution/filter", "shape": [3, 3, 48, 48], "dtype": "float32"}, {"name": "model_27/tf.math.add_117/Add/y", "shape": [48], "dtype": "float32"}, {"name": "model_27/tf.concat_22/concat/axis", "shape": [], "dtype": "int32"}, {"name": "model_27/tf.nn.convolution_91/convolution/filter", "shape": [1, 1, 192, 96], "dtype": "float32"}, {"name": "model_27/tf.math.add_120/Add/y", "shape": [96], "dtype": "float32"}, {"name": "model_27/tf.compat.v1.pad_9/Pad/paddings", "shape": [4, 2], "dtype": "int32"}, {"name": "model_27/tf.nn.convolution_92/convolution/filter", "shape": [3, 3, 96, 192], "dtype": "float32"}, {"name": "model_27/tf.math.add_121/Add/y", "shape": [192], "dtype": "float32"}, {"name": "model_27/tf.nn.convolution_93/convolution/filter", "shape": [1, 1, 192, 192], "dtype": "float32"}, {"name": "model_27/tf.math.add_122/Add/y", "shape": [192], "dtype": "float32"}, {"name": "model_27/tf.strided_slice_23/ones_like/tensor", "shape": [4], "dtype": "int32"}, {"name": "model_27/tf.strided_slice_23/StridedSlice/end", "shape": [4], "dtype": "int32"}, {"name": "model_27/tf.strided_slice_23/ones_like", "shape": [4], "dtype": "int32"}, {"name": "model_27/tf.nn.convolution_94/convolution/filter", "shape": [3, 3, 96, 96], "dtype": "float32"}, {"name": "model_27/tf.math.add_123/Add/y", "shape": [96], "dtype": "float32"}, {"name": "model_27/tf.nn.convolution_95/convolution/filter", "shape": [3, 3, 96, 96], "dtype": "float32"}, {"name": "model_27/tf.math.add_124/Add/y", "shape": [96], "dtype": "float32"}, {"name": "model_27/tf.nn.convolution_96/convolution/filter", "shape": [3, 3, 96, 96], "dtype": "float32"}, {"name": "model_27/tf.math.add_127/Add/y", "shape": [96], "dtype": "float32"}, {"name": "model_27/tf.nn.convolution_97/convolution/filter", "shape": [3, 3, 96, 96], "dtype": "float32"}, {"name": "model_27/tf.math.add_128/Add/y", "shape": [96], "dtype": "float32"}, {"name": "model_27/tf.nn.convolution_98/convolution/filter", "shape": [3, 3, 96, 96], "dtype": "float32"}, {"name": "model_27/tf.math.add_131/Add/y", "shape": [96], "dtype": "float32"}, {"name": "model_27/tf.nn.convolution_99/convolution/filter", "shape": [3, 3, 96, 96], "dtype": "float32"}, {"name": "model_27/tf.math.add_132/Add/y", "shape": [96], "dtype": "float32"}, {"name": "model_27/tf.nn.convolution_100/convolution/filter", "shape": [3, 3, 96, 96], "dtype": "float32"}, {"name": "model_27/tf.math.add_135/Add/y", "shape": [96], "dtype": "float32"}, {"name": "model_27/tf.nn.convolution_101/convolution/filter", "shape": [3, 3, 96, 96], "dtype": "float32"}, {"name": "model_27/tf.math.add_136/Add/y", "shape": [96], "dtype": "float32"}, {"name": "model_27/tf.concat_23/concat/axis", "shape": [], "dtype": "int32"}, {"name": "model_27/tf.nn.convolution_102/convolution/filter", "shape": [1, 1, 576, 192], "dtype": "float32"}, {"name": "model_27/tf.math.add_139/Add/y", "shape": [192], "dtype": "float32"}, {"name": "model_27/tf.compat.v1.pad_10/Pad/paddings", "shape": [4, 2], "dtype": "int32"}, {"name": "model_27/tf.nn.convolution_103/convolution/filter", "shape": [3, 3, 192, 384], "dtype": "float32"}, {"name": "model_27/tf.math.add_140/Add/y", "shape": [384], "dtype": "float32"}, {"name": "model_27/tf.nn.convolution_104/convolution/filter", "shape": [1, 1, 384, 384], "dtype": "float32"}, {"name": "model_27/tf.math.add_141/Add/y", "shape": [384], "dtype": "float32"}, {"name": "model_27/tf.strided_slice_25/ones_like/tensor", "shape": [4], "dtype": "int32"}, {"name": "model_27/tf.strided_slice_25/StridedSlice/end", "shape": [4], "dtype": "int32"}, {"name": "model_27/tf.strided_slice_25/ones_like", "shape": [4], "dtype": "int32"}, {"name": "model_27/tf.nn.convolution_105/convolution/filter", "shape": [3, 3, 192, 192], "dtype": "float32"}, {"name": "model_27/tf.math.add_142/Add/y", "shape": [192], "dtype": "float32"}, {"name": "model_27/tf.nn.convolution_106/convolution/filter", "shape": [3, 3, 192, 192], "dtype": "float32"}, {"name": "model_27/tf.math.add_143/Add/y", "shape": [192], "dtype": "float32"}, {"name": "model_27/tf.nn.convolution_107/convolution/filter", "shape": [3, 3, 192, 192], "dtype": "float32"}, {"name": "model_27/tf.math.add_146/Add/y", "shape": [192], "dtype": "float32"}, {"name": "model_27/tf.nn.convolution_108/convolution/filter", "shape": [3, 3, 192, 192], "dtype": "float32"}, {"name": "model_27/tf.math.add_147/Add/y", "shape": [192], "dtype": "float32"}, {"name": "model_27/tf.nn.convolution_109/convolution/filter", "shape": [3, 3, 192, 192], "dtype": "float32"}, {"name": "model_27/tf.math.add_150/Add/y", "shape": [192], "dtype": "float32"}, {"name": "model_27/tf.nn.convolution_110/convolution/filter", "shape": [3, 3, 192, 192], "dtype": "float32"}, {"name": "model_27/tf.math.add_151/Add/y", "shape": [192], "dtype": "float32"}, {"name": "model_27/tf.nn.convolution_111/convolution/filter", "shape": [3, 3, 192, 192], "dtype": "float32"}, {"name": "model_27/tf.math.add_154/Add/y", "shape": [192], "dtype": "float32"}, {"name": "model_27/tf.nn.convolution_112/convolution/filter", "shape": [3, 3, 192, 192], "dtype": "float32"}, {"name": "model_27/tf.math.add_155/Add/y", "shape": [192], "dtype": "float32"}, {"name": "model_27/tf.concat_24/concat/axis", "shape": [], "dtype": "int32"}, {"name": "model_27/tf.nn.convolution_113/convolution/filter", "shape": [1, 1, 1152, 384], "dtype": "float32"}, {"name": "model_27/tf.math.add_158/Add/y", "shape": [384], "dtype": "float32"}, {"name": "model_27/tf.compat.v1.pad_11/Pad/paddings", "shape": [4, 2], "dtype": "int32"}, {"name": "model_27/tf.nn.convolution_114/convolution/filter", "shape": [3, 3, 384, 576], "dtype": "float32"}, {"name": "model_27/tf.math.add_159/Add/y", "shape": [576], "dtype": "float32"}, {"name": "model_27/tf.nn.convolution_115/convolution/filter", "shape": [1, 1, 576, 576], "dtype": "float32"}, {"name": "model_27/tf.math.add_160/Add/y", "shape": [576], "dtype": "float32"}, {"name": "model_27/tf.strided_slice_27/ones_like/tensor", "shape": [4], "dtype": "int32"}, {"name": "model_27/tf.strided_slice_27/StridedSlice/end", "shape": [4], "dtype": "int32"}, {"name": "model_27/tf.strided_slice_27/ones_like", "shape": [4], "dtype": "int32"}, {"name": "model_27/tf.nn.convolution_116/convolution/filter", "shape": [3, 3, 288, 288], "dtype": "float32"}, {"name": "model_27/tf.math.add_161/Add/y", "shape": [288], "dtype": "float32"}, {"name": "model_27/tf.nn.convolution_117/convolution/filter", "shape": [3, 3, 288, 288], "dtype": "float32"}, {"name": "model_27/tf.math.add_162/Add/y", "shape": [288], "dtype": "float32"}, {"name": "model_27/tf.nn.convolution_118/convolution/filter", "shape": [3, 3, 288, 288], "dtype": "float32"}, {"name": "model_27/tf.math.add_165/Add/y", "shape": [288], "dtype": "float32"}, {"name": "model_27/tf.nn.convolution_119/convolution/filter", "shape": [3, 3, 288, 288], "dtype": "float32"}, {"name": "model_27/tf.math.add_166/Add/y", "shape": [288], "dtype": "float32"}, {"name": "model_27/tf.concat_25/concat/axis", "shape": [], "dtype": "int32"}, {"name": "model_27/tf.nn.convolution_120/convolution/filter", "shape": [1, 1, 1152, 576], "dtype": "float32"}, {"name": "model_27/tf.math.add_169/Add/y", "shape": [576], "dtype": "float32"}, {"name": "model_27/tf.nn.convolution_121/convolution/filter", "shape": [1, 1, 576, 288], "dtype": "float32"}, {"name": "model_27/tf.math.add_170/Add/y", "shape": [288], "dtype": "float32"}, {"name": "model_27/tf.concat_26/concat/axis", "shape": [], "dtype": "int32"}, {"name": "model_27/tf.nn.convolution_122/convolution/filter", "shape": [1, 1, 1152, 576], "dtype": "float32"}, {"name": "model_27/tf.math.add_171/Add/y", "shape": [576], "dtype": "float32"}, {"name": "model_27/tf.concat_34/concat/axis", "shape": [], "dtype": "int32"}, {"name": "model_27/tf.nn.convolution_153/convolution/filter", "shape": [1, 1, 960, 576], "dtype": "float32"}, {"name": "model_27/tf.math.add_202/Add/y", "shape": [576], "dtype": "float32"}, {"name": "model_27/tf.strided_slice_35/ones_like/tensor", "shape": [4], "dtype": "int32"}, {"name": "model_27/tf.strided_slice_35/StridedSlice/end", "shape": [4], "dtype": "int32"}, {"name": "model_27/tf.strided_slice_35/ones_like", "shape": [4], "dtype": "int32"}, {"name": "model_27/tf.nn.convolution_156/convolution/filter", "shape": [3, 3, 288, 288], "dtype": "float32"}, {"name": "model_27/tf.math.add_205/Add/y", "shape": [288], "dtype": "float32"}, {"name": "model_27/tf.nn.convolution_157/convolution/filter", "shape": [3, 3, 288, 288], "dtype": "float32"}, {"name": "model_27/tf.math.add_206/Add/y", "shape": [288], "dtype": "float32"}, {"name": "model_27/tf.nn.convolution_158/convolution/filter", "shape": [3, 3, 288, 288], "dtype": "float32"}, {"name": "model_27/tf.math.add_207/Add/y", "shape": [288], "dtype": "float32"}, {"name": "model_27/tf.nn.convolution_159/convolution/filter", "shape": [3, 3, 288, 288], "dtype": "float32"}, {"name": "model_27/tf.math.add_208/Add/y", "shape": [288], "dtype": "float32"}, {"name": "model_27/tf.concat_36/concat/axis", "shape": [], "dtype": "int32"}, {"name": "model_27/tf.nn.convolution_160/convolution/filter", "shape": [1, 1, 1152, 576], "dtype": "float32"}, {"name": "model_27/tf.math.add_209/Add/y", "shape": [576], "dtype": "float32"}, {"name": "model_27/tf.nn.convolution_162/convolution/filter", "shape": [3, 3, 576, 192], "dtype": "float32"}, {"name": "model_27/tf.math.add_211/Add/y", "shape": [192], "dtype": "float32"}, {"name": "model_27/tf.nn.convolution_164/convolution/filter", "shape": [3, 3, 192, 192], "dtype": "float32"}, {"name": "model_27/tf.math.add_213/Add/y", "shape": [192], "dtype": "float32"}, {"name": "model_27/tf.nn.convolution_166/convolution/filter", "shape": [1, 1, 192, 10], "dtype": "float32"}, {"name": "model_27/tf.math.add_215/Add/y", "shape": [10], "dtype": "float32"}, {"name": "model_27/tf.concat_37/concat/axis", "shape": [], "dtype": "int32"}, {"name": "model_27/tf.compat.v1.transpose_218/transpose/perm", "shape": [4], "dtype": "int32"}, {"name": "model_27/tf.reshape_23/Reshape/shape", "shape": [3], "dtype": "int32"}, {"name": "model_27/tf.concat_38/concat/axis", "shape": [], "dtype": "int32"}, {"name": "model_27/tf.strided_slice_37/StridedSlice/begin", "shape": [3], "dtype": "int32"}, {"name": "model_27/tf.strided_slice_37/StridedSlice/end", "shape": [3], "dtype": "int32"}, {"name": "model_27/tf.strided_slice_37/ones_like", "shape": [3], "dtype": "int32"}, {"name": "model_27/output0/concat/axis", "shape": [], "dtype": "int32"}]}]}